{
  "arm": "jax_mps_sync",
  "backend": "mps",
  "compiled_ir": null,
  "compiled_ir_error": "backend exposes no compiled-executable text",
  "dispatch_mode": "safe",
  "failure": null,
  "kind": "ir_capture",
  "parameters": {
    "size": 1000000
  },
  "provenance": {
    "jax_mps_dylib": {
      "bytes": 32384360,
      "path": "/Users/michaelellis/.cache/uv/archive-v0/8aCbjkrM__ZT_tG2KtcKv/lib/python3.13/site-packages/jax_plugins/mps/lib/libpjrt_plugin_mps.dylib",
      "sha256": "d5845ce1184e6b26f838af9f97b5fc94997b77cd7f4fdafc4f351d963bc2055a"
    },
    "mlx_metallib": {
      "bytes": 125453832,
      "path": "/Users/michaelellis/.cache/uv/archive-v0/8aCbjkrM__ZT_tG2KtcKv/lib/python3.13/site-packages/jax_plugins/mps/lib/mlx.metallib",
      "sha256": "b9fe88797d1fdded94c7e6a1aed138acd1fb6a257f14483c2d378d2dfecaf7a8"
    },
    "sysinfo": {
      "Backend": "mps",
      "Chip": "Apple M3 Pro",
      "Memory": "36 GB",
      "Python": "3.13.9",
      "jax": "0.10.2",
      "jax-mps": "0.10.9",
      "jaxlib": "0.10.2",
      "macOS": "26.2 (25C56)"
    },
    "versions": {
      "jax-mps": "0.10.9",
      "jaxlib": "0.10.2",
      "python": "3.13.9"
    }
  },
  "schema_version": 1,
  "stablehlo": "module @jit_operation attributes {mhlo.num_partitions = 1 : i32, mhlo.num_replicas = 1 : i32} {\n  func.func public @main(%arg0: tensor<2xui32>, %arg1: tensor<100xf32>) -> (tensor<f32> {jax.result_info = \"result[0]\"}, tensor<100x1000000x1xf32> {jax.result_info = \"result[1]\"}, tensor<100x1000000xf32> {jax.result_info = \"result[2]\"}, tensor<100x1000000xi32> {jax.result_info = \"result[3]\"}, tensor<100xf32> {jax.result_info = \"result[4]\"}, tensor<100xf32> {jax.result_info = \"result[5]\"}) {\n    %0 = stablehlo.custom_call @Sharding(%arg0) {backend_config = \"\", mhlo.sharding = \"{replicated}\"} : (tensor<2xui32>) -> tensor<2xui32>\n    %1 = call @_threefry_split(%0) : (tensor<2xui32>) -> tensor<2x2xui32>\n    %2 = stablehlo.slice %1 [0:1, 0:2] : (tensor<2x2xui32>) -> tensor<1x2xui32>\n    %3 = stablehlo.reshape %2 : (tensor<1x2xui32>) -> tensor<2xui32>\n    %4 = stablehlo.slice %1 [1:2, 0:2] : (tensor<2x2xui32>) -> tensor<1x2xui32>\n    %5 = stablehlo.reshape %4 : (tensor<1x2xui32>) -> tensor<2xui32>\n    %6 = call @_normal(%5) : (tensor<2xui32>) -> tensor<1000000x1xf32>\n    %cst = stablehlo.constant dense<1.000000e+00> : tensor<f32>\n    %7 = stablehlo.broadcast_in_dim %cst, dims = [] : (tensor<f32>) -> tensor<1000000x1xf32>\n    %8 = stablehlo.multiply %7, %6 : tensor<1000000x1xf32>\n    %cst_0 = stablehlo.constant dense<0.000000e+00> : tensor<f32>\n    %9 = stablehlo.broadcast_in_dim %cst_0, dims = [] : (tensor<f32>) -> tensor<1000000x1xf32>\n    %10 = stablehlo.add %9, %8 : tensor<1000000x1xf32>\n    %11 = stablehlo.slice %arg1 [0:1] : (tensor<100xf32>) -> tensor<1xf32>\n    %12 = stablehlo.reshape %11 : (tensor<1xf32>) -> tensor<f32>\n    %13 = stablehlo.reshape %10 : (tensor<1000000x1xf32>) -> tensor<1000000xf32>\n    %14 = stablehlo.broadcast_in_dim %12, dims = [] : (tensor<f32>) -> tensor<1000000xf32>\n    %15 = stablehlo.subtract %14, %13 : tensor<1000000xf32>\n    %16 = stablehlo.multiply %15, %15 : tensor<1000000xf32>\n    %cst_1 = stablehlo.constant dense<3.000000e-01> : tensor<f32>\n    %17 = stablehlo.broadcast_in_dim %cst_1, dims = [] : (tensor<f32>) -> tensor<1000000xf32>\n    %18 = stablehlo.divide %16, %17 : tensor<1000000xf32>\n    %cst_2 = stablehlo.constant dense<0.633904278> : tensor<f32>\n    %19 = stablehlo.broadcast_in_dim %cst_2, dims = [] : (tensor<f32>) -> tensor<1000000xf32>\n    %20 = stablehlo.add %19, %18 : tensor<1000000xf32>\n    %cst_3 = stablehlo.constant dense<-5.000000e-01> : tensor<f32>\n    %21 = stablehlo.broadcast_in_dim %cst_3, dims = [] : (tensor<f32>) -> tensor<1000000xf32>\n    %22 = stablehlo.multiply %21, %20 : tensor<1000000xf32>\n    %cst_4 = stablehlo.constant dense<0xFF800000> : tensor<f32>\n    %23 = stablehlo.reduce(%22 init: %cst_4) applies stablehlo.maximum across dimensions = [0] : (tensor<1000000xf32>, tensor<f32>) -> tensor<f32>\n    %24 = stablehlo.broadcast_in_dim %23, dims = [] : (tensor<f32>) -> tensor<1000000xf32>\n    %25 = stablehlo.subtract %22, %24 : tensor<1000000xf32>\n    %26 = stablehlo.exponential %25 : tensor<1000000xf32>\n    %cst_5 = stablehlo.constant dense<0.000000e+00> : tensor<f32>\n    %27 = stablehlo.reduce(%26 init: %cst_5) applies stablehlo.add across dimensions = [0] : (tensor<1000000xf32>, tensor<f32>) -> tensor<f32>\n    %28 = stablehlo.log %27 : tensor<f32>\n    %29 = stablehlo.add %23, %28 : tensor<f32>\n    %30 = stablehlo.broadcast_in_dim %29, dims = [] : (tensor<f32>) -> tensor<1000000xf32>\n    %31 = stablehlo.subtract %22, %30 : tensor<1000000xf32>\n    %cst_6 = stablehlo.constant dense<13.8155107> : tensor<f32>\n    %32 = stablehlo.subtract %29, %cst_6 : tensor<f32>\n    %cst_7 = stablehlo.constant dense<2.000000e+00> : tensor<f32>\n    %33 = stablehlo.broadcast_in_dim %cst_7, dims = [] : (tensor<f32>) -> tensor<1000000xf32>\n    %34 = stablehlo.multiply %33, %31 : tensor<1000000xf32>\n    %35 = stablehlo.exponential %34 : tensor<1000000xf32>\n    %cst_8 = stablehlo.constant dense<0.000000e+00> : tensor<f32>\n    %36 = stablehlo.reduce(%35 init: %cst_8) applies stablehlo.add across dimensions = [0] : (tensor<1000000xf32>, tensor<f32>) -> tensor<f32>\n    %cst_9 = stablehlo.constant dense<1.000000e+00> : tensor<f32>\n    %37 = stablehlo.divide %cst_9, %36 : tensor<f32>\n    %38 = stablehlo.iota dim = 0 : tensor<1000000xi32>\n    %39 = call @_threefry_split_1(%3) : (tensor<2xui32>) -> tensor<99x2xui32>\n    %40 = stablehlo.slice %arg1 [1:100] : (tensor<100xf32>) -> tensor<99xf32>\n    %cst_10 = stablehlo.constant dense<0.000000e+00> : tensor<f32>\n    %41 = stablehlo.broadcast_in_dim %cst_10, dims = [] : (tensor<f32>) -> tensor<99x1000000x1xf32>\n    %cst_11 = stablehlo.constant dense<0.000000e+00> : tensor<f32>\n    %42 = stablehlo.broadcast_in_dim %cst_11, dims = [] : (tensor<f32>) -> tensor<99x1000000xf32>\n    %c = stablehlo.constant dense<0> : tensor<i32>\n    %43 = stablehlo.broadcast_in_dim %c, dims = [] : (tensor<i32>) -> tensor<99x1000000xi32>\n    %cst_12 = stablehlo.constant dense<0.000000e+00> : tensor<f32>\n    %44 = stablehlo.broadcast_in_dim %cst_12, dims = [] : (tensor<f32>) -> tensor<99xf32>\n    %cst_13 = stablehlo.constant dense<0.000000e+00> : tensor<f32>\n    %45 = stablehlo.broadcast_in_dim %cst_13, dims = [] : (tensor<f32>) -> tensor<99xf32>\n    %c_14 = stablehlo.constant dense<0> : tensor<i32>\n    %46:12 = stablehlo.while(%iterArg = %39, %iterArg_16 = %40, %iterArg_17 = %38, %iterArg_18 = %c_14, %iterArg_19 = %10, %iterArg_20 = %31, %iterArg_21 = %32, %iterArg_22 = %41, %iterArg_23 = %42, %iterArg_24 = %43, %iterArg_25 = %44, %iterArg_26 = %45) : tensor<99x2xui32>, tensor<99xf32>, tensor<1000000xi32>, tensor<i32>, tensor<1000000x1xf32>, tensor<1000000xf32>, tensor<f32>, tensor<99x1000000x1xf32>, tensor<99x1000000xf32>, tensor<99x1000000xi32>, tensor<99xf32>, tensor<99xf32>\n    cond {\n      %c_27 = stablehlo.constant dense<99> : tensor<i32>\n      %58 = stablehlo.compare LT, %iterArg_18, %c_27, SIGNED : (tensor<i32>, tensor<i32>) -> tensor<i1>\n      stablehlo.return %58 : tensor<i1>\n    } do {\n      %58 = func.call @dynamic_index_in_dim(%iterArg, %iterArg_18) : (tensor<99x2xui32>, tensor<i32>) -> tensor<2xui32>\n      %59 = func.call @dynamic_index_in_dim_3(%iterArg_16, %iterArg_18) : (tensor<99xf32>, tensor<i32>) -> tensor<f32>\n      %60:8 = func.call @closed_call(%iterArg_17, %iterArg_19, %iterArg_20, %iterArg_21, %58, %59) : (tensor<1000000xi32>, tensor<1000000x1xf32>, tensor<1000000xf32>, tensor<f32>, tensor<2xui32>, tensor<f32>) -> (tensor<1000000x1xf32>, tensor<1000000xf32>, tensor<f32>, tensor<1000000x1xf32>, tensor<1000000xf32>, tensor<1000000xi32>, tensor<f32>, tensor<f32>)\n      %61 = func.call @dynamic_update_index_in_dim(%iterArg_22, %60#3, %iterArg_18) : (tensor<99x1000000x1xf32>, tensor<1000000x1xf32>, tensor<i32>) -> tensor<99x1000000x1xf32>\n      %62 = func.call @dynamic_update_index_in_dim_11(%iterArg_23, %60#4, %iterArg_18) : (tensor<99x1000000xf32>, tensor<1000000xf32>, tensor<i32>) -> tensor<99x1000000xf32>\n      %63 = func.call @dynamic_update_index_in_dim_12(%iterArg_24, %60#5, %iterArg_18) : (tensor<99x1000000xi32>, tensor<1000000xi32>, tensor<i32>) -> tensor<99x1000000xi32>\n      %64 = func.call @dynamic_update_index_in_dim_13(%iterArg_25, %60#6, %iterArg_18) : (tensor<99xf32>, tensor<f32>, tensor<i32>) -> tensor<99xf32>\n      %65 = func.call @dynamic_update_index_in_dim_13(%iterArg_26, %60#7, %iterArg_18) : (tensor<99xf32>, tensor<f32>, tensor<i32>) -> tensor<99xf32>\n      %c_27 = stablehlo.constant dense<1> : tensor<i32>\n      %66 = stablehlo.add %iterArg_18, %c_27 : tensor<i32>\n      stablehlo.return %iterArg, %iterArg_16, %iterArg_17, %66, %60#0, %60#1, %60#2, %61, %62, %63, %64, %65 : tensor<99x2xui32>, tensor<99xf32>, tensor<1000000xi32>, tensor<i32>, tensor<1000000x1xf32>, tensor<1000000xf32>, tensor<f32>, tensor<99x1000000x1xf32>, tensor<99x1000000xf32>, tensor<99x1000000xi32>, tensor<99xf32>, tensor<99xf32>\n    }\n    %47 = stablehlo.broadcast_in_dim %10, dims = [1, 2] : (tensor<1000000x1xf32>) -> tensor<1x1000000x1xf32>\n    %48 = stablehlo.concatenate %47, %46#7, dim = 0 : (tensor<1x1000000x1xf32>, tensor<99x1000000x1xf32>) -> tensor<100x1000000x1xf32>\n    %49 = stablehlo.broadcast_in_dim %31, dims = [1] : (tensor<1000000xf32>) -> tensor<1x1000000xf32>\n    %50 = stablehlo.concatenate %49, %46#8, dim = 0 : (tensor<1x1000000xf32>, tensor<99x1000000xf32>) -> tensor<100x1000000xf32>\n    %51 = stablehlo.broadcast_in_dim %38, dims = [1] : (tensor<1000000xi32>) -> tensor<1x1000000xi32>\n    %52 = stablehlo.concatenate %51, %46#9, dim = 0 : (tensor<1x1000000xi32>, tensor<99x1000000xi32>) -> tensor<100x1000000xi32>\n    %53 = stablehlo.broadcast_in_dim %37, dims = [] : (tensor<f32>) -> tensor<1xf32>\n    %54 = stablehlo.concatenate %53, %46#10, dim = 0 : (tensor<1xf32>, tensor<99xf32>) -> tensor<100xf32>\n    %cst_15 = stablehlo.constant dense<13.8155107> : tensor<f32>\n    %55 = stablehlo.subtract %29, %cst_15 : tensor<f32>\n    %56 = stablehlo.broadcast_in_dim %55, dims = [] : (tensor<f32>) -> tensor<1xf32>\n    %57 = stablehlo.concatenate %56, %46#11, dim = 0 : (tensor<1xf32>, tensor<99xf32>) -> tensor<100xf32>\n    return %46#6, %48, %50, %52, %54, %57 : tensor<f32>, tensor<100x1000000x1xf32>, tensor<100x1000000xf32>, tensor<100x1000000xi32>, tensor<100xf32>, tensor<100xf32>\n  }\n  func.func private @_threefry_split(%arg0: tensor<2xui32>) -> tensor<2x2xui32> {\n    %0 = stablehlo.slice %arg0 [0:1] : (tensor<2xui32>) -> tensor<1xui32>\n    %1 = stablehlo.reshape %0 : (tensor<1xui32>) -> tensor<ui32>\n    %2 = stablehlo.slice %arg0 [1:2] : (tensor<2xui32>) -> tensor<1xui32>\n    %3 = stablehlo.reshape %2 : (tensor<1xui32>) -> tensor<ui32>\n    %4 = stablehlo.iota dim = 0 : tensor<2xui64>\n    %c = stablehlo.constant dense<1> : tensor<ui64>\n    %5 = stablehlo.broadcast_in_dim %c, dims = [] : (tensor<ui64>) -> tensor<2xui64>\n    %6 = stablehlo.multiply %5, %4 : tensor<2xui64>\n    %c_0 = stablehlo.constant dense<32> : tensor<ui64>\n    %7 = stablehlo.broadcast_in_dim %c_0, dims = [] : (tensor<ui64>) -> tensor<2xui64>\n    %8 = stablehlo.shift_right_logical %6, %7 : tensor<2xui64>\n    %9 = stablehlo.convert %6 : (tensor<2xui64>) -> tensor<2xui32>\n    %10 = stablehlo.convert %8 : (tensor<2xui64>) -> tensor<2xui32>\n    %11:2 = call @threefry2x32(%1, %3, %10, %9) : (tensor<ui32>, tensor<ui32>, tensor<2xui32>, tensor<2xui32>) -> (tensor<2xui32>, tensor<2xui32>)\n    %12 = stablehlo.broadcast_in_dim %11#0, dims = [0] : (tensor<2xui32>) -> tensor<2x1xui32>\n    %13 = stablehlo.broadcast_in_dim %11#1, dims = [0] : (tensor<2xui32>) -> tensor<2x1xui32>\n    %14 = stablehlo.concatenate %12, %13, dim = 1 : (tensor<2x1xui32>, tensor<2x1xui32>) -> tensor<2x2xui32>\n    return %14 : tensor<2x2xui32>\n  }\n  func.func private @threefry2x32(%arg0: tensor<ui32>, %arg1: tensor<ui32>, %arg2: tensor<2xui32>, %arg3: tensor<2xui32>) -> (tensor<2xui32>, tensor<2xui32>) {\n    %0 = stablehlo.xor %arg0, %arg1 : tensor<ui32>\n    %c = stablehlo.constant dense<466688986> : tensor<ui32>\n    %1 = stablehlo.xor %0, %c : tensor<ui32>\n    %2 = stablehlo.broadcast_in_dim %arg0, dims = [] : (tensor<ui32>) -> tensor<2xui32>\n    %3 = stablehlo.add %arg2, %2 : tensor<2xui32>\n    %4 = stablehlo.broadcast_in_dim %arg1, dims = [] : (tensor<ui32>) -> tensor<2xui32>\n    %5 = stablehlo.add %arg3, %4 : tensor<2xui32>\n    %6 = stablehlo.add %3, %5 : tensor<2xui32>\n    %c_0 = stablehlo.constant dense<13> : tensor<ui32>\n    %7 = stablehlo.broadcast_in_dim %c_0, dims = [] : (tensor<ui32>) -> tensor<2xui32>\n    %8 = stablehlo.shift_left %5, %7 : tensor<2xui32>\n    %c_1 = stablehlo.constant dense<19> : tensor<ui32>\n    %9 = stablehlo.broadcast_in_dim %c_1, dims = [] : (tensor<ui32>) -> tensor<2xui32>\n    %10 = stablehlo.shift_right_logical %5, %9 : tensor<2xui32>\n    %11 = stablehlo.or %8, %10 : tensor<2xui32>\n    %12 = stablehlo.xor %6, %11 : tensor<2xui32>\n    %13 = stablehlo.add %6, %12 : tensor<2xui32>\n    %c_2 = stablehlo.constant dense<15> : tensor<ui32>\n    %14 = stablehlo.broadcast_in_dim %c_2, dims = [] : (tensor<ui32>) -> tensor<2xui32>\n    %15 = stablehlo.shift_left %12, %14 : tensor<2xui32>\n    %c_3 = stablehlo.constant dense<17> : tensor<ui32>\n    %16 = stablehlo.broadcast_in_dim %c_3, dims = [] : (tensor<ui32>) -> tensor<2xui32>\n    %17 = stablehlo.shift_right_logical %12, %16 : tensor<2xui32>\n    %18 = stablehlo.or %15, %17 : tensor<2xui32>\n    %19 = stablehlo.xor %13, %18 : tensor<2xui32>\n    %20 = stablehlo.add %13, %19 : tensor<2xui32>\n    %c_4 = stablehlo.constant dense<26> : tensor<ui32>\n    %21 = stablehlo.broadcast_in_dim %c_4, dims = [] : (tensor<ui32>) -> tensor<2xui32>\n    %22 = stablehlo.shift_left %19, %21 : tensor<2xui32>\n    %c_5 = stablehlo.constant dense<6> : tensor<ui32>\n    %23 = stablehlo.broadcast_in_dim %c_5, dims = [] : (tensor<ui32>) -> tensor<2xui32>\n    %24 = stablehlo.shift_right_logical %19, %23 : tensor<2xui32>\n    %25 = stablehlo.or %22, %24 : tensor<2xui32>\n    %26 = stablehlo.xor %20, %25 : tensor<2xui32>\n    %27 = stablehlo.add %20, %26 : tensor<2xui32>\n    %c_6 = stablehlo.constant dense<6> : tensor<ui32>\n    %28 = stablehlo.broadcast_in_dim %c_6, dims = [] : (tensor<ui32>) -> tensor<2xui32>\n    %29 = stablehlo.shift_left %26, %28 : tensor<2xui32>\n    %c_7 = stablehlo.constant dense<26> : tensor<ui32>\n    %30 = stablehlo.broadcast_in_dim %c_7, dims = [] : (tensor<ui32>) -> tensor<2xui32>\n    %31 = stablehlo.shift_right_logical %26, %30 : tensor<2xui32>\n    %32 = stablehlo.or %29, %31 : tensor<2xui32>\n    %33 = stablehlo.xor %27, %32 : tensor<2xui32>\n    %34 = stablehlo.broadcast_in_dim %arg1, dims = [] : (tensor<ui32>) -> tensor<2xui32>\n    %35 = stablehlo.add %27, %34 : tensor<2xui32>\n    %36 = stablehlo.broadcast_in_dim %1, dims = [] : (tensor<ui32>) -> tensor<2xui32>\n    %37 = stablehlo.add %33, %36 : tensor<2xui32>\n    %c_8 = stablehlo.constant dense<1> : tensor<ui32>\n    %38 = stablehlo.broadcast_in_dim %c_8, dims = [] : (tensor<ui32>) -> tensor<2xui32>\n    %39 = stablehlo.add %37, %38 : tensor<2xui32>\n    %40 = stablehlo.add %35, %39 : tensor<2xui32>\n    %c_9 = stablehlo.constant dense<17> : tensor<ui32>\n    %41 = stablehlo.broadcast_in_dim %c_9, dims = [] : (tensor<ui32>) -> tensor<2xui32>\n    %42 = stablehlo.shift_left %39, %41 : tensor<2xui32>\n    %c_10 = stablehlo.constant dense<15> : tensor<ui32>\n    %43 = stablehlo.broadcast_in_dim %c_10, dims = [] : (tensor<ui32>) -> tensor<2xui32>\n    %44 = stablehlo.shift_right_logical %39, %43 : tensor<2xui32>\n    %45 = stablehlo.or %42, %44 : tensor<2xui32>\n    %46 = stablehlo.xor %40, %45 : tensor<2xui32>\n    %47 = stablehlo.add %40, %46 : tensor<2xui32>\n    %c_11 = stablehlo.constant dense<29> : tensor<ui32>\n    %48 = stablehlo.broadcast_in_dim %c_11, dims = [] : (tensor<ui32>) -> tensor<2xui32>\n    %49 = stablehlo.shift_left %46, %48 : tensor<2xui32>\n    %c_12 = stablehlo.constant dense<3> : tensor<ui32>\n    %50 = stablehlo.broadcast_in_dim %c_12, dims = [] : (tensor<ui32>) -> tensor<2xui32>\n    %51 = stablehlo.shift_right_logical %46, %50 : tensor<2xui32>\n    %52 = stablehlo.or %49, %51 : tensor<2xui32>\n    %53 = stablehlo.xor %47, %52 : tensor<2xui32>\n    %54 = stablehlo.add %47, %53 : tensor<2xui32>\n    %c_13 = stablehlo.constant dense<16> : tensor<ui32>\n    %55 = stablehlo.broadcast_in_dim %c_13, dims = [] : (tensor<ui32>) -> tensor<2xui32>\n    %56 = stablehlo.shift_left %53, %55 : tensor<2xui32>\n    %c_14 = stablehlo.constant dense<16> : tensor<ui32>\n    %57 = stablehlo.broadcast_in_dim %c_14, dims = [] : (tensor<ui32>) -> tensor<2xui32>\n    %58 = stablehlo.shift_right_logical %53, %57 : tensor<2xui32>\n    %59 = stablehlo.or %56, %58 : tensor<2xui32>\n    %60 = stablehlo.xor %54, %59 : tensor<2xui32>\n    %61 = stablehlo.add %54, %60 : tensor<2xui32>\n    %c_15 = stablehlo.constant dense<24> : tensor<ui32>\n    %62 = stablehlo.broadcast_in_dim %c_15, dims = [] : (tensor<ui32>) -> tensor<2xui32>\n    %63 = stablehlo.shift_left %60, %62 : tensor<2xui32>\n    %c_16 = stablehlo.constant dense<8> : tensor<ui32>\n    %64 = stablehlo.broadcast_in_dim %c_16, dims = [] : (tensor<ui32>) -> tensor<2xui32>\n    %65 = stablehlo.shift_right_logical %60, %64 : tensor<2xui32>\n    %66 = stablehlo.or %63, %65 : tensor<2xui32>\n    %67 = stablehlo.xor %61, %66 : tensor<2xui32>\n    %68 = stablehlo.broadcast_in_dim %1, dims = [] : (tensor<ui32>) -> tensor<2xui32>\n    %69 = stablehlo.add %61, %68 : tensor<2xui32>\n    %70 = stablehlo.broadcast_in_dim %arg0, dims = [] : (tensor<ui32>) -> tensor<2xui32>\n    %71 = stablehlo.add %67, %70 : tensor<2xui32>\n    %c_17 = stablehlo.constant dense<2> : tensor<ui32>\n    %72 = stablehlo.broadcast_in_dim %c_17, dims = [] : (tensor<ui32>) -> tensor<2xui32>\n    %73 = stablehlo.add %71, %72 : tensor<2xui32>\n    %74 = stablehlo.add %69, %73 : tensor<2xui32>\n    %c_18 = stablehlo.constant dense<13> : tensor<ui32>\n    %75 = stablehlo.broadcast_in_dim %c_18, dims = [] : (tensor<ui32>) -> tensor<2xui32>\n    %76 = stablehlo.shift_left %73, %75 : tensor<2xui32>\n    %c_19 = stablehlo.constant dense<19> : tensor<ui32>\n    %77 = stablehlo.broadcast_in_dim %c_19, dims = [] : (tensor<ui32>) -> tensor<2xui32>\n    %78 = stablehlo.shift_right_logical %73, %77 : tensor<2xui32>\n    %79 = stablehlo.or %76, %78 : tensor<2xui32>\n    %80 = stablehlo.xor %74, %79 : tensor<2xui32>\n    %81 = stablehlo.add %74, %80 : tensor<2xui32>\n    %c_20 = stablehlo.constant dense<15> : tensor<ui32>\n    %82 = stablehlo.broadcast_in_dim %c_20, dims = [] : (tensor<ui32>) -> tensor<2xui32>\n    %83 = stablehlo.shift_left %80, %82 : tensor<2xui32>\n    %c_21 = stablehlo.constant dense<17> : tensor<ui32>\n    %84 = stablehlo.broadcast_in_dim %c_21, dims = [] : (tensor<ui32>) -> tensor<2xui32>\n    %85 = stablehlo.shift_right_logical %80, %84 : tensor<2xui32>\n    %86 = stablehlo.or %83, %85 : tensor<2xui32>\n    %87 = stablehlo.xor %81, %86 : tensor<2xui32>\n    %88 = stablehlo.add %81, %87 : tensor<2xui32>\n    %c_22 = stablehlo.constant dense<26> : tensor<ui32>\n    %89 = stablehlo.broadcast_in_dim %c_22, dims = [] : (tensor<ui32>) -> tensor<2xui32>\n    %90 = stablehlo.shift_left %87, %89 : tensor<2xui32>\n    %c_23 = stablehlo.constant dense<6> : tensor<ui32>\n    %91 = stablehlo.broadcast_in_dim %c_23, dims = [] : (tensor<ui32>) -> tensor<2xui32>\n    %92 = stablehlo.shift_right_logical %87, %91 : tensor<2xui32>\n    %93 = stablehlo.or %90, %92 : tensor<2xui32>\n    %94 = stablehlo.xor %88, %93 : tensor<2xui32>\n    %95 = stablehlo.add %88, %94 : tensor<2xui32>\n    %c_24 = stablehlo.constant dense<6> : tensor<ui32>\n    %96 = stablehlo.broadcast_in_dim %c_24, dims = [] : (tensor<ui32>) -> tensor<2xui32>\n    %97 = stablehlo.shift_left %94, %96 : tensor<2xui32>\n    %c_25 = stablehlo.constant dense<26> : tensor<ui32>\n    %98 = stablehlo.broadcast_in_dim %c_25, dims = [] : (tensor<ui32>) -> tensor<2xui32>\n    %99 = stablehlo.shift_right_logical %94, %98 : tensor<2xui32>\n    %100 = stablehlo.or %97, %99 : tensor<2xui32>\n    %101 = stablehlo.xor %95, %100 : tensor<2xui32>\n    %102 = stablehlo.broadcast_in_dim %arg0, dims = [] : (tensor<ui32>) -> tensor<2xui32>\n    %103 = stablehlo.add %95, %102 : tensor<2xui32>\n    %104 = stablehlo.broadcast_in_dim %arg1, dims = [] : (tensor<ui32>) -> tensor<2xui32>\n    %105 = stablehlo.add %101, %104 : tensor<2xui32>\n    %c_26 = stablehlo.constant dense<3> : tensor<ui32>\n    %106 = stablehlo.broadcast_in_dim %c_26, dims = [] : (tensor<ui32>) -> tensor<2xui32>\n    %107 = stablehlo.add %105, %106 : tensor<2xui32>\n    %108 = stablehlo.add %103, %107 : tensor<2xui32>\n    %c_27 = stablehlo.constant dense<17> : tensor<ui32>\n    %109 = stablehlo.broadcast_in_dim %c_27, dims = [] : (tensor<ui32>) -> tensor<2xui32>\n    %110 = stablehlo.shift_left %107, %109 : tensor<2xui32>\n    %c_28 = stablehlo.constant dense<15> : tensor<ui32>\n    %111 = stablehlo.broadcast_in_dim %c_28, dims = [] : (tensor<ui32>) -> tensor<2xui32>\n    %112 = stablehlo.shift_right_logical %107, %111 : tensor<2xui32>\n    %113 = stablehlo.or %110, %112 : tensor<2xui32>\n    %114 = stablehlo.xor %108, %113 : tensor<2xui32>\n    %115 = stablehlo.add %108, %114 : tensor<2xui32>\n    %c_29 = stablehlo.constant dense<29> : tensor<ui32>\n    %116 = stablehlo.broadcast_in_dim %c_29, dims = [] : (tensor<ui32>) -> tensor<2xui32>\n    %117 = stablehlo.shift_left %114, %116 : tensor<2xui32>\n    %c_30 = stablehlo.constant dense<3> : tensor<ui32>\n    %118 = stablehlo.broadcast_in_dim %c_30, dims = [] : (tensor<ui32>) -> tensor<2xui32>\n    %119 = stablehlo.shift_right_logical %114, %118 : tensor<2xui32>\n    %120 = stablehlo.or %117, %119 : tensor<2xui32>\n    %121 = stablehlo.xor %115, %120 : tensor<2xui32>\n    %122 = stablehlo.add %115, %121 : tensor<2xui32>\n    %c_31 = stablehlo.constant dense<16> : tensor<ui32>\n    %123 = stablehlo.broadcast_in_dim %c_31, dims = [] : (tensor<ui32>) -> tensor<2xui32>\n    %124 = stablehlo.shift_left %121, %123 : tensor<2xui32>\n    %c_32 = stablehlo.constant dense<16> : tensor<ui32>\n    %125 = stablehlo.broadcast_in_dim %c_32, dims = [] : (tensor<ui32>) -> tensor<2xui32>\n    %126 = stablehlo.shift_right_logical %121, %125 : tensor<2xui32>\n    %127 = stablehlo.or %124, %126 : tensor<2xui32>\n    %128 = stablehlo.xor %122, %127 : tensor<2xui32>\n    %129 = stablehlo.add %122, %128 : tensor<2xui32>\n    %c_33 = stablehlo.constant dense<24> : tensor<ui32>\n    %130 = stablehlo.broadcast_in_dim %c_33, dims = [] : (tensor<ui32>) -> tensor<2xui32>\n    %131 = stablehlo.shift_left %128, %130 : tensor<2xui32>\n    %c_34 = stablehlo.constant dense<8> : tensor<ui32>\n    %132 = stablehlo.broadcast_in_dim %c_34, dims = [] : (tensor<ui32>) -> tensor<2xui32>\n    %133 = stablehlo.shift_right_logical %128, %132 : tensor<2xui32>\n    %134 = stablehlo.or %131, %133 : tensor<2xui32>\n    %135 = stablehlo.xor %129, %134 : tensor<2xui32>\n    %136 = stablehlo.broadcast_in_dim %arg1, dims = [] : (tensor<ui32>) -> tensor<2xui32>\n    %137 = stablehlo.add %129, %136 : tensor<2xui32>\n    %138 = stablehlo.broadcast_in_dim %1, dims = [] : (tensor<ui32>) -> tensor<2xui32>\n    %139 = stablehlo.add %135, %138 : tensor<2xui32>\n    %c_35 = stablehlo.constant dense<4> : tensor<ui32>\n    %140 = stablehlo.broadcast_in_dim %c_35, dims = [] : (tensor<ui32>) -> tensor<2xui32>\n    %141 = stablehlo.add %139, %140 : tensor<2xui32>\n    %142 = stablehlo.add %137, %141 : tensor<2xui32>\n    %c_36 = stablehlo.constant dense<13> : tensor<ui32>\n    %143 = stablehlo.broadcast_in_dim %c_36, dims = [] : (tensor<ui32>) -> tensor<2xui32>\n    %144 = stablehlo.shift_left %141, %143 : tensor<2xui32>\n    %c_37 = stablehlo.constant dense<19> : tensor<ui32>\n    %145 = stablehlo.broadcast_in_dim %c_37, dims = [] : (tensor<ui32>) -> tensor<2xui32>\n    %146 = stablehlo.shift_right_logical %141, %145 : tensor<2xui32>\n    %147 = stablehlo.or %144, %146 : tensor<2xui32>\n    %148 = stablehlo.xor %142, %147 : tensor<2xui32>\n    %149 = stablehlo.add %142, %148 : tensor<2xui32>\n    %c_38 = stablehlo.constant dense<15> : tensor<ui32>\n    %150 = stablehlo.broadcast_in_dim %c_38, dims = [] : (tensor<ui32>) -> tensor<2xui32>\n    %151 = stablehlo.shift_left %148, %150 : tensor<2xui32>\n    %c_39 = stablehlo.constant dense<17> : tensor<ui32>\n    %152 = stablehlo.broadcast_in_dim %c_39, dims = [] : (tensor<ui32>) -> tensor<2xui32>\n    %153 = stablehlo.shift_right_logical %148, %152 : tensor<2xui32>\n    %154 = stablehlo.or %151, %153 : tensor<2xui32>\n    %155 = stablehlo.xor %149, %154 : tensor<2xui32>\n    %156 = stablehlo.add %149, %155 : tensor<2xui32>\n    %c_40 = stablehlo.constant dense<26> : tensor<ui32>\n    %157 = stablehlo.broadcast_in_dim %c_40, dims = [] : (tensor<ui32>) -> tensor<2xui32>\n    %158 = stablehlo.shift_left %155, %157 : tensor<2xui32>\n    %c_41 = stablehlo.constant dense<6> : tensor<ui32>\n    %159 = stablehlo.broadcast_in_dim %c_41, dims = [] : (tensor<ui32>) -> tensor<2xui32>\n    %160 = stablehlo.shift_right_logical %155, %159 : tensor<2xui32>\n    %161 = stablehlo.or %158, %160 : tensor<2xui32>\n    %162 = stablehlo.xor %156, %161 : tensor<2xui32>\n    %163 = stablehlo.add %156, %162 : tensor<2xui32>\n    %c_42 = stablehlo.constant dense<6> : tensor<ui32>\n    %164 = stablehlo.broadcast_in_dim %c_42, dims = [] : (tensor<ui32>) -> tensor<2xui32>\n    %165 = stablehlo.shift_left %162, %164 : tensor<2xui32>\n    %c_43 = stablehlo.constant dense<26> : tensor<ui32>\n    %166 = stablehlo.broadcast_in_dim %c_43, dims = [] : (tensor<ui32>) -> tensor<2xui32>\n    %167 = stablehlo.shift_right_logical %162, %166 : tensor<2xui32>\n    %168 = stablehlo.or %165, %167 : tensor<2xui32>\n    %169 = stablehlo.xor %163, %168 : tensor<2xui32>\n    %170 = stablehlo.broadcast_in_dim %1, dims = [] : (tensor<ui32>) -> tensor<2xui32>\n    %171 = stablehlo.add %163, %170 : tensor<2xui32>\n    %172 = stablehlo.broadcast_in_dim %arg0, dims = [] : (tensor<ui32>) -> tensor<2xui32>\n    %173 = stablehlo.add %169, %172 : tensor<2xui32>\n    %c_44 = stablehlo.constant dense<5> : tensor<ui32>\n    %174 = stablehlo.broadcast_in_dim %c_44, dims = [] : (tensor<ui32>) -> tensor<2xui32>\n    %175 = stablehlo.add %173, %174 : tensor<2xui32>\n    return %171, %175 : tensor<2xui32>, tensor<2xui32>\n  }\n  func.func private @_normal(%arg0: tensor<2xui32>) -> tensor<1000000x1xf32> {\n    %0 = call @_normal_real(%arg0) : (tensor<2xui32>) -> tensor<1000000x1xf32>\n    return %0 : tensor<1000000x1xf32>\n  }\n  func.func private @_normal_real(%arg0: tensor<2xui32>) -> tensor<1000000x1xf32> {\n    %cst = stablehlo.constant dense<-0.99999994> : tensor<f32>\n    %cst_0 = stablehlo.constant dense<1.000000e+00> : tensor<f32>\n    %0 = call @_uniform(%arg0, %cst, %cst_0) : (tensor<2xui32>, tensor<f32>, tensor<f32>) -> tensor<1000000x1xf32>\n    %1 = stablehlo.custom_call @mhlo.erf_inv(%0) {api_version = 2 : i32, backend_config = \"\"} : (tensor<1000000x1xf32>) -> tensor<1000000x1xf32>\n    %cst_1 = stablehlo.constant dense<1.41421354> : tensor<f32>\n    %2 = stablehlo.broadcast_in_dim %cst_1, dims = [] : (tensor<f32>) -> tensor<1000000x1xf32>\n    %3 = stablehlo.multiply %2, %1 : tensor<1000000x1xf32>\n    return %3 : tensor<1000000x1xf32>\n  }\n  func.func private @_uniform(%arg0: tensor<2xui32>, %arg1: tensor<f32>, %arg2: tensor<f32>) -> tensor<1000000x1xf32> {\n    %0 = stablehlo.broadcast_in_dim %arg1, dims = [] : (tensor<f32>) -> tensor<1x1xf32>\n    %1 = stablehlo.broadcast_in_dim %arg2, dims = [] : (tensor<f32>) -> tensor<1x1xf32>\n    %2 = stablehlo.slice %arg0 [0:1] : (tensor<2xui32>) -> tensor<1xui32>\n    %3 = stablehlo.reshape %2 : (tensor<1xui32>) -> tensor<ui32>\n    %4 = stablehlo.slice %arg0 [1:2] : (tensor<2xui32>) -> tensor<1xui32>\n    %5 = stablehlo.reshape %4 : (tensor<1xui32>) -> tensor<ui32>\n    %6 = stablehlo.iota dim = 0 : tensor<1000000x1xui64>\n    %7 = stablehlo.iota dim = 1 : tensor<1000000x1xui64>\n    %c = stablehlo.constant dense<1> : tensor<ui64>\n    %8 = stablehlo.broadcast_in_dim %c, dims = [] : (tensor<ui64>) -> tensor<1000000x1xui64>\n    %9 = stablehlo.multiply %8, %6 : tensor<1000000x1xui64>\n    %c_0 = stablehlo.constant dense<1> : tensor<ui64>\n    %10 = stablehlo.broadcast_in_dim %c_0, dims = [] : (tensor<ui64>) -> tensor<1000000x1xui64>\n    %11 = stablehlo.multiply %10, %7 : tensor<1000000x1xui64>\n    %12 = stablehlo.add %9, %11 : tensor<1000000x1xui64>\n    %c_1 = stablehlo.constant dense<32> : tensor<ui64>\n    %13 = stablehlo.broadcast_in_dim %c_1, dims = [] : (tensor<ui64>) -> tensor<1000000x1xui64>\n    %14 = stablehlo.shift_right_logical %12, %13 : tensor<1000000x1xui64>\n    %15 = stablehlo.convert %12 : (tensor<1000000x1xui64>) -> tensor<1000000x1xui32>\n    %16 = stablehlo.convert %14 : (tensor<1000000x1xui64>) -> tensor<1000000x1xui32>\n    %17:2 = call @threefry2x32_0(%3, %5, %16, %15) : (tensor<ui32>, tensor<ui32>, tensor<1000000x1xui32>, tensor<1000000x1xui32>) -> (tensor<1000000x1xui32>, tensor<1000000x1xui32>)\n    %18 = stablehlo.xor %17#0, %17#1 : tensor<1000000x1xui32>\n    %c_2 = stablehlo.constant dense<9> : tensor<ui32>\n    %19 = stablehlo.broadcast_in_dim %c_2, dims = [] : (tensor<ui32>) -> tensor<1000000x1xui32>\n    %20 = stablehlo.shift_right_logical %18, %19 : tensor<1000000x1xui32>\n    %c_3 = stablehlo.constant dense<1065353216> : tensor<ui32>\n    %21 = stablehlo.broadcast_in_dim %c_3, dims = [] : (tensor<ui32>) -> tensor<1000000x1xui32>\n    %22 = stablehlo.or %20, %21 : tensor<1000000x1xui32>\n    %23 = stablehlo.bitcast_convert %22 : (tensor<1000000x1xui32>) -> tensor<1000000x1xf32>\n    %cst = stablehlo.constant dense<1.000000e+00> : tensor<f32>\n    %24 = stablehlo.broadcast_in_dim %cst, dims = [] : (tensor<f32>) -> tensor<1000000x1xf32>\n    %25 = stablehlo.subtract %23, %24 : tensor<1000000x1xf32>\n    %26 = stablehlo.subtract %1, %0 : tensor<1x1xf32>\n    %27 = stablehlo.broadcast_in_dim %26, dims = [0, 1] : (tensor<1x1xf32>) -> tensor<1000000x1xf32>\n    %28 = stablehlo.multiply %25, %27 : tensor<1000000x1xf32>\n    %29 = stablehlo.broadcast_in_dim %0, dims = [0, 1] : (tensor<1x1xf32>) -> tensor<1000000x1xf32>\n    %30 = stablehlo.add %28, %29 : tensor<1000000x1xf32>\n    %31 = stablehlo.broadcast_in_dim %0, dims = [0, 1] : (tensor<1x1xf32>) -> tensor<1000000x1xf32>\n    %32 = stablehlo.maximum %31, %30 : tensor<1000000x1xf32>\n    return %32 : tensor<1000000x1xf32>\n  }\n  func.func private @threefry2x32_0(%arg0: tensor<ui32>, %arg1: tensor<ui32>, %arg2: tensor<1000000x1xui32>, %arg3: tensor<1000000x1xui32>) -> (tensor<1000000x1xui32>, tensor<1000000x1xui32>) {\n    %0 = stablehlo.xor %arg0, %arg1 : tensor<ui32>\n    %c = stablehlo.constant dense<466688986> : tensor<ui32>\n    %1 = stablehlo.xor %0, %c : tensor<ui32>\n    %2 = stablehlo.broadcast_in_dim %arg0, dims = [] : (tensor<ui32>) -> tensor<1000000x1xui32>\n    %3 = stablehlo.add %arg2, %2 : tensor<1000000x1xui32>\n    %4 = stablehlo.broadcast_in_dim %arg1, dims = [] : (tensor<ui32>) -> tensor<1000000x1xui32>\n    %5 = stablehlo.add %arg3, %4 : tensor<1000000x1xui32>\n    %6 = stablehlo.add %3, %5 : tensor<1000000x1xui32>\n    %c_0 = stablehlo.constant dense<13> : tensor<ui32>\n    %7 = stablehlo.broadcast_in_dim %c_0, dims = [] : (tensor<ui32>) -> tensor<1000000x1xui32>\n    %8 = stablehlo.shift_left %5, %7 : tensor<1000000x1xui32>\n    %c_1 = stablehlo.constant dense<19> : tensor<ui32>\n    %9 = stablehlo.broadcast_in_dim %c_1, dims = [] : (tensor<ui32>) -> tensor<1000000x1xui32>\n    %10 = stablehlo.shift_right_logical %5, %9 : tensor<1000000x1xui32>\n    %11 = stablehlo.or %8, %10 : tensor<1000000x1xui32>\n    %12 = stablehlo.xor %6, %11 : tensor<1000000x1xui32>\n    %13 = stablehlo.add %6, %12 : tensor<1000000x1xui32>\n    %c_2 = stablehlo.constant dense<15> : tensor<ui32>\n    %14 = stablehlo.broadcast_in_dim %c_2, dims = [] : (tensor<ui32>) -> tensor<1000000x1xui32>\n    %15 = stablehlo.shift_left %12, %14 : tensor<1000000x1xui32>\n    %c_3 = stablehlo.constant dense<17> : tensor<ui32>\n    %16 = stablehlo.broadcast_in_dim %c_3, dims = [] : (tensor<ui32>) -> tensor<1000000x1xui32>\n    %17 = stablehlo.shift_right_logical %12, %16 : tensor<1000000x1xui32>\n    %18 = stablehlo.or %15, %17 : tensor<1000000x1xui32>\n    %19 = stablehlo.xor %13, %18 : tensor<1000000x1xui32>\n    %20 = stablehlo.add %13, %19 : tensor<1000000x1xui32>\n    %c_4 = stablehlo.constant dense<26> : tensor<ui32>\n    %21 = stablehlo.broadcast_in_dim %c_4, dims = [] : (tensor<ui32>) -> tensor<1000000x1xui32>\n    %22 = stablehlo.shift_left %19, %21 : tensor<1000000x1xui32>\n    %c_5 = stablehlo.constant dense<6> : tensor<ui32>\n    %23 = stablehlo.broadcast_in_dim %c_5, dims = [] : (tensor<ui32>) -> tensor<1000000x1xui32>\n    %24 = stablehlo.shift_right_logical %19, %23 : tensor<1000000x1xui32>\n    %25 = stablehlo.or %22, %24 : tensor<1000000x1xui32>\n    %26 = stablehlo.xor %20, %25 : tensor<1000000x1xui32>\n    %27 = stablehlo.add %20, %26 : tensor<1000000x1xui32>\n    %c_6 = stablehlo.constant dense<6> : tensor<ui32>\n    %28 = stablehlo.broadcast_in_dim %c_6, dims = [] : (tensor<ui32>) -> tensor<1000000x1xui32>\n    %29 = stablehlo.shift_left %26, %28 : tensor<1000000x1xui32>\n    %c_7 = stablehlo.constant dense<26> : tensor<ui32>\n    %30 = stablehlo.broadcast_in_dim %c_7, dims = [] : (tensor<ui32>) -> tensor<1000000x1xui32>\n    %31 = stablehlo.shift_right_logical %26, %30 : tensor<1000000x1xui32>\n    %32 = stablehlo.or %29, %31 : tensor<1000000x1xui32>\n    %33 = stablehlo.xor %27, %32 : tensor<1000000x1xui32>\n    %34 = stablehlo.broadcast_in_dim %arg1, dims = [] : (tensor<ui32>) -> tensor<1000000x1xui32>\n    %35 = stablehlo.add %27, %34 : tensor<1000000x1xui32>\n    %36 = stablehlo.broadcast_in_dim %1, dims = [] : (tensor<ui32>) -> tensor<1000000x1xui32>\n    %37 = stablehlo.add %33, %36 : tensor<1000000x1xui32>\n    %c_8 = stablehlo.constant dense<1> : tensor<ui32>\n    %38 = stablehlo.broadcast_in_dim %c_8, dims = [] : (tensor<ui32>) -> tensor<1000000x1xui32>\n    %39 = stablehlo.add %37, %38 : tensor<1000000x1xui32>\n    %40 = stablehlo.add %35, %39 : tensor<1000000x1xui32>\n    %c_9 = stablehlo.constant dense<17> : tensor<ui32>\n    %41 = stablehlo.broadcast_in_dim %c_9, dims = [] : (tensor<ui32>) -> tensor<1000000x1xui32>\n    %42 = stablehlo.shift_left %39, %41 : tensor<1000000x1xui32>\n    %c_10 = stablehlo.constant dense<15> : tensor<ui32>\n    %43 = stablehlo.broadcast_in_dim %c_10, dims = [] : (tensor<ui32>) -> tensor<1000000x1xui32>\n    %44 = stablehlo.shift_right_logical %39, %43 : tensor<1000000x1xui32>\n    %45 = stablehlo.or %42, %44 : tensor<1000000x1xui32>\n    %46 = stablehlo.xor %40, %45 : tensor<1000000x1xui32>\n    %47 = stablehlo.add %40, %46 : tensor<1000000x1xui32>\n    %c_11 = stablehlo.constant dense<29> : tensor<ui32>\n    %48 = stablehlo.broadcast_in_dim %c_11, dims = [] : (tensor<ui32>) -> tensor<1000000x1xui32>\n    %49 = stablehlo.shift_left %46, %48 : tensor<1000000x1xui32>\n    %c_12 = stablehlo.constant dense<3> : tensor<ui32>\n    %50 = stablehlo.broadcast_in_dim %c_12, dims = [] : (tensor<ui32>) -> tensor<1000000x1xui32>\n    %51 = stablehlo.shift_right_logical %46, %50 : tensor<1000000x1xui32>\n    %52 = stablehlo.or %49, %51 : tensor<1000000x1xui32>\n    %53 = stablehlo.xor %47, %52 : tensor<1000000x1xui32>\n    %54 = stablehlo.add %47, %53 : tensor<1000000x1xui32>\n    %c_13 = stablehlo.constant dense<16> : tensor<ui32>\n    %55 = stablehlo.broadcast_in_dim %c_13, dims = [] : (tensor<ui32>) -> tensor<1000000x1xui32>\n    %56 = stablehlo.shift_left %53, %55 : tensor<1000000x1xui32>\n    %c_14 = stablehlo.constant dense<16> : tensor<ui32>\n    %57 = stablehlo.broadcast_in_dim %c_14, dims = [] : (tensor<ui32>) -> tensor<1000000x1xui32>\n    %58 = stablehlo.shift_right_logical %53, %57 : tensor<1000000x1xui32>\n    %59 = stablehlo.or %56, %58 : tensor<1000000x1xui32>\n    %60 = stablehlo.xor %54, %59 : tensor<1000000x1xui32>\n    %61 = stablehlo.add %54, %60 : tensor<1000000x1xui32>\n    %c_15 = stablehlo.constant dense<24> : tensor<ui32>\n    %62 = stablehlo.broadcast_in_dim %c_15, dims = [] : (tensor<ui32>) -> tensor<1000000x1xui32>\n    %63 = stablehlo.shift_left %60, %62 : tensor<1000000x1xui32>\n    %c_16 = stablehlo.constant dense<8> : tensor<ui32>\n    %64 = stablehlo.broadcast_in_dim %c_16, dims = [] : (tensor<ui32>) -> tensor<1000000x1xui32>\n    %65 = stablehlo.shift_right_logical %60, %64 : tensor<1000000x1xui32>\n    %66 = stablehlo.or %63, %65 : tensor<1000000x1xui32>\n    %67 = stablehlo.xor %61, %66 : tensor<1000000x1xui32>\n    %68 = stablehlo.broadcast_in_dim %1, dims = [] : (tensor<ui32>) -> tensor<1000000x1xui32>\n    %69 = stablehlo.add %61, %68 : tensor<1000000x1xui32>\n    %70 = stablehlo.broadcast_in_dim %arg0, dims = [] : (tensor<ui32>) -> tensor<1000000x1xui32>\n    %71 = stablehlo.add %67, %70 : tensor<1000000x1xui32>\n    %c_17 = stablehlo.constant dense<2> : tensor<ui32>\n    %72 = stablehlo.broadcast_in_dim %c_17, dims = [] : (tensor<ui32>) -> tensor<1000000x1xui32>\n    %73 = stablehlo.add %71, %72 : tensor<1000000x1xui32>\n    %74 = stablehlo.add %69, %73 : tensor<1000000x1xui32>\n    %c_18 = stablehlo.constant dense<13> : tensor<ui32>\n    %75 = stablehlo.broadcast_in_dim %c_18, dims = [] : (tensor<ui32>) -> tensor<1000000x1xui32>\n    %76 = stablehlo.shift_left %73, %75 : tensor<1000000x1xui32>\n    %c_19 = stablehlo.constant dense<19> : tensor<ui32>\n    %77 = stablehlo.broadcast_in_dim %c_19, dims = [] : (tensor<ui32>) -> tensor<1000000x1xui32>\n    %78 = stablehlo.shift_right_logical %73, %77 : tensor<1000000x1xui32>\n    %79 = stablehlo.or %76, %78 : tensor<1000000x1xui32>\n    %80 = stablehlo.xor %74, %79 : tensor<1000000x1xui32>\n    %81 = stablehlo.add %74, %80 : tensor<1000000x1xui32>\n    %c_20 = stablehlo.constant dense<15> : tensor<ui32>\n    %82 = stablehlo.broadcast_in_dim %c_20, dims = [] : (tensor<ui32>) -> tensor<1000000x1xui32>\n    %83 = stablehlo.shift_left %80, %82 : tensor<1000000x1xui32>\n    %c_21 = stablehlo.constant dense<17> : tensor<ui32>\n    %84 = stablehlo.broadcast_in_dim %c_21, dims = [] : (tensor<ui32>) -> tensor<1000000x1xui32>\n    %85 = stablehlo.shift_right_logical %80, %84 : tensor<1000000x1xui32>\n    %86 = stablehlo.or %83, %85 : tensor<1000000x1xui32>\n    %87 = stablehlo.xor %81, %86 : tensor<1000000x1xui32>\n    %88 = stablehlo.add %81, %87 : tensor<1000000x1xui32>\n    %c_22 = stablehlo.constant dense<26> : tensor<ui32>\n    %89 = stablehlo.broadcast_in_dim %c_22, dims = [] : (tensor<ui32>) -> tensor<1000000x1xui32>\n    %90 = stablehlo.shift_left %87, %89 : tensor<1000000x1xui32>\n    %c_23 = stablehlo.constant dense<6> : tensor<ui32>\n    %91 = stablehlo.broadcast_in_dim %c_23, dims = [] : (tensor<ui32>) -> tensor<1000000x1xui32>\n    %92 = stablehlo.shift_right_logical %87, %91 : tensor<1000000x1xui32>\n    %93 = stablehlo.or %90, %92 : tensor<1000000x1xui32>\n    %94 = stablehlo.xor %88, %93 : tensor<1000000x1xui32>\n    %95 = stablehlo.add %88, %94 : tensor<1000000x1xui32>\n    %c_24 = stablehlo.constant dense<6> : tensor<ui32>\n    %96 = stablehlo.broadcast_in_dim %c_24, dims = [] : (tensor<ui32>) -> tensor<1000000x1xui32>\n    %97 = stablehlo.shift_left %94, %96 : tensor<1000000x1xui32>\n    %c_25 = stablehlo.constant dense<26> : tensor<ui32>\n    %98 = stablehlo.broadcast_in_dim %c_25, dims = [] : (tensor<ui32>) -> tensor<1000000x1xui32>\n    %99 = stablehlo.shift_right_logical %94, %98 : tensor<1000000x1xui32>\n    %100 = stablehlo.or %97, %99 : tensor<1000000x1xui32>\n    %101 = stablehlo.xor %95, %100 : tensor<1000000x1xui32>\n    %102 = stablehlo.broadcast_in_dim %arg0, dims = [] : (tensor<ui32>) -> tensor<1000000x1xui32>\n    %103 = stablehlo.add %95, %102 : tensor<1000000x1xui32>\n    %104 = stablehlo.broadcast_in_dim %arg1, dims = [] : (tensor<ui32>) -> tensor<1000000x1xui32>\n    %105 = stablehlo.add %101, %104 : tensor<1000000x1xui32>\n    %c_26 = stablehlo.constant dense<3> : tensor<ui32>\n    %106 = stablehlo.broadcast_in_dim %c_26, dims = [] : (tensor<ui32>) -> tensor<1000000x1xui32>\n    %107 = stablehlo.add %105, %106 : tensor<1000000x1xui32>\n    %108 = stablehlo.add %103, %107 : tensor<1000000x1xui32>\n    %c_27 = stablehlo.constant dense<17> : tensor<ui32>\n    %109 = stablehlo.broadcast_in_dim %c_27, dims = [] : (tensor<ui32>) -> tensor<1000000x1xui32>\n    %110 = stablehlo.shift_left %107, %109 : tensor<1000000x1xui32>\n    %c_28 = stablehlo.constant dense<15> : tensor<ui32>\n    %111 = stablehlo.broadcast_in_dim %c_28, dims = [] : (tensor<ui32>) -> tensor<1000000x1xui32>\n    %112 = stablehlo.shift_right_logical %107, %111 : tensor<1000000x1xui32>\n    %113 = stablehlo.or %110, %112 : tensor<1000000x1xui32>\n    %114 = stablehlo.xor %108, %113 : tensor<1000000x1xui32>\n    %115 = stablehlo.add %108, %114 : tensor<1000000x1xui32>\n    %c_29 = stablehlo.constant dense<29> : tensor<ui32>\n    %116 = stablehlo.broadcast_in_dim %c_29, dims = [] : (tensor<ui32>) -> tensor<1000000x1xui32>\n    %117 = stablehlo.shift_left %114, %116 : tensor<1000000x1xui32>\n    %c_30 = stablehlo.constant dense<3> : tensor<ui32>\n    %118 = stablehlo.broadcast_in_dim %c_30, dims = [] : (tensor<ui32>) -> tensor<1000000x1xui32>\n    %119 = stablehlo.shift_right_logical %114, %118 : tensor<1000000x1xui32>\n    %120 = stablehlo.or %117, %119 : tensor<1000000x1xui32>\n    %121 = stablehlo.xor %115, %120 : tensor<1000000x1xui32>\n    %122 = stablehlo.add %115, %121 : tensor<1000000x1xui32>\n    %c_31 = stablehlo.constant dense<16> : tensor<ui32>\n    %123 = stablehlo.broadcast_in_dim %c_31, dims = [] : (tensor<ui32>) -> tensor<1000000x1xui32>\n    %124 = stablehlo.shift_left %121, %123 : tensor<1000000x1xui32>\n    %c_32 = stablehlo.constant dense<16> : tensor<ui32>\n    %125 = stablehlo.broadcast_in_dim %c_32, dims = [] : (tensor<ui32>) -> tensor<1000000x1xui32>\n    %126 = stablehlo.shift_right_logical %121, %125 : tensor<1000000x1xui32>\n    %127 = stablehlo.or %124, %126 : tensor<1000000x1xui32>\n    %128 = stablehlo.xor %122, %127 : tensor<1000000x1xui32>\n    %129 = stablehlo.add %122, %128 : tensor<1000000x1xui32>\n    %c_33 = stablehlo.constant dense<24> : tensor<ui32>\n    %130 = stablehlo.broadcast_in_dim %c_33, dims = [] : (tensor<ui32>) -> tensor<1000000x1xui32>\n    %131 = stablehlo.shift_left %128, %130 : tensor<1000000x1xui32>\n    %c_34 = stablehlo.constant dense<8> : tensor<ui32>\n    %132 = stablehlo.broadcast_in_dim %c_34, dims = [] : (tensor<ui32>) -> tensor<1000000x1xui32>\n    %133 = stablehlo.shift_right_logical %128, %132 : tensor<1000000x1xui32>\n    %134 = stablehlo.or %131, %133 : tensor<1000000x1xui32>\n    %135 = stablehlo.xor %129, %134 : tensor<1000000x1xui32>\n    %136 = stablehlo.broadcast_in_dim %arg1, dims = [] : (tensor<ui32>) -> tensor<1000000x1xui32>\n    %137 = stablehlo.add %129, %136 : tensor<1000000x1xui32>\n    %138 = stablehlo.broadcast_in_dim %1, dims = [] : (tensor<ui32>) -> tensor<1000000x1xui32>\n    %139 = stablehlo.add %135, %138 : tensor<1000000x1xui32>\n    %c_35 = stablehlo.constant dense<4> : tensor<ui32>\n    %140 = stablehlo.broadcast_in_dim %c_35, dims = [] : (tensor<ui32>) -> tensor<1000000x1xui32>\n    %141 = stablehlo.add %139, %140 : tensor<1000000x1xui32>\n    %142 = stablehlo.add %137, %141 : tensor<1000000x1xui32>\n    %c_36 = stablehlo.constant dense<13> : tensor<ui32>\n    %143 = stablehlo.broadcast_in_dim %c_36, dims = [] : (tensor<ui32>) -> tensor<1000000x1xui32>\n    %144 = stablehlo.shift_left %141, %143 : tensor<1000000x1xui32>\n    %c_37 = stablehlo.constant dense<19> : tensor<ui32>\n    %145 = stablehlo.broadcast_in_dim %c_37, dims = [] : (tensor<ui32>) -> tensor<1000000x1xui32>\n    %146 = stablehlo.shift_right_logical %141, %145 : tensor<1000000x1xui32>\n    %147 = stablehlo.or %144, %146 : tensor<1000000x1xui32>\n    %148 = stablehlo.xor %142, %147 : tensor<1000000x1xui32>\n    %149 = stablehlo.add %142, %148 : tensor<1000000x1xui32>\n    %c_38 = stablehlo.constant dense<15> : tensor<ui32>\n    %150 = stablehlo.broadcast_in_dim %c_38, dims = [] : (tensor<ui32>) -> tensor<1000000x1xui32>\n    %151 = stablehlo.shift_left %148, %150 : tensor<1000000x1xui32>\n    %c_39 = stablehlo.constant dense<17> : tensor<ui32>\n    %152 = stablehlo.broadcast_in_dim %c_39, dims = [] : (tensor<ui32>) -> tensor<1000000x1xui32>\n    %153 = stablehlo.shift_right_logical %148, %152 : tensor<1000000x1xui32>\n    %154 = stablehlo.or %151, %153 : tensor<1000000x1xui32>\n    %155 = stablehlo.xor %149, %154 : tensor<1000000x1xui32>\n    %156 = stablehlo.add %149, %155 : tensor<1000000x1xui32>\n    %c_40 = stablehlo.constant dense<26> : tensor<ui32>\n    %157 = stablehlo.broadcast_in_dim %c_40, dims = [] : (tensor<ui32>) -> tensor<1000000x1xui32>\n    %158 = stablehlo.shift_left %155, %157 : tensor<1000000x1xui32>\n    %c_41 = stablehlo.constant dense<6> : tensor<ui32>\n    %159 = stablehlo.broadcast_in_dim %c_41, dims = [] : (tensor<ui32>) -> tensor<1000000x1xui32>\n    %160 = stablehlo.shift_right_logical %155, %159 : tensor<1000000x1xui32>\n    %161 = stablehlo.or %158, %160 : tensor<1000000x1xui32>\n    %162 = stablehlo.xor %156, %161 : tensor<1000000x1xui32>\n    %163 = stablehlo.add %156, %162 : tensor<1000000x1xui32>\n    %c_42 = stablehlo.constant dense<6> : tensor<ui32>\n    %164 = stablehlo.broadcast_in_dim %c_42, dims = [] : (tensor<ui32>) -> tensor<1000000x1xui32>\n    %165 = stablehlo.shift_left %162, %164 : tensor<1000000x1xui32>\n    %c_43 = stablehlo.constant dense<26> : tensor<ui32>\n    %166 = stablehlo.broadcast_in_dim %c_43, dims = [] : (tensor<ui32>) -> tensor<1000000x1xui32>\n    %167 = stablehlo.shift_right_logical %162, %166 : tensor<1000000x1xui32>\n    %168 = stablehlo.or %165, %167 : tensor<1000000x1xui32>\n    %169 = stablehlo.xor %163, %168 : tensor<1000000x1xui32>\n    %170 = stablehlo.broadcast_in_dim %1, dims = [] : (tensor<ui32>) -> tensor<1000000x1xui32>\n    %171 = stablehlo.add %163, %170 : tensor<1000000x1xui32>\n    %172 = stablehlo.broadcast_in_dim %arg0, dims = [] : (tensor<ui32>) -> tensor<1000000x1xui32>\n    %173 = stablehlo.add %169, %172 : tensor<1000000x1xui32>\n    %c_44 = stablehlo.constant dense<5> : tensor<ui32>\n    %174 = stablehlo.broadcast_in_dim %c_44, dims = [] : (tensor<ui32>) -> tensor<1000000x1xui32>\n    %175 = stablehlo.add %173, %174 : tensor<1000000x1xui32>\n    return %171, %175 : tensor<1000000x1xui32>, tensor<1000000x1xui32>\n  }\n  func.func private @_threefry_split_1(%arg0: tensor<2xui32>) -> tensor<99x2xui32> {\n    %0 = stablehlo.slice %arg0 [0:1] : (tensor<2xui32>) -> tensor<1xui32>\n    %1 = stablehlo.reshape %0 : (tensor<1xui32>) -> tensor<ui32>\n    %2 = stablehlo.slice %arg0 [1:2] : (tensor<2xui32>) -> tensor<1xui32>\n    %3 = stablehlo.reshape %2 : (tensor<1xui32>) -> tensor<ui32>\n    %4 = stablehlo.iota dim = 0 : tensor<99xui64>\n    %c = stablehlo.constant dense<1> : tensor<ui64>\n    %5 = stablehlo.broadcast_in_dim %c, dims = [] : (tensor<ui64>) -> tensor<99xui64>\n    %6 = stablehlo.multiply %5, %4 : tensor<99xui64>\n    %c_0 = stablehlo.constant dense<32> : tensor<ui64>\n    %7 = stablehlo.broadcast_in_dim %c_0, dims = [] : (tensor<ui64>) -> tensor<99xui64>\n    %8 = stablehlo.shift_right_logical %6, %7 : tensor<99xui64>\n    %9 = stablehlo.convert %6 : (tensor<99xui64>) -> tensor<99xui32>\n    %10 = stablehlo.convert %8 : (tensor<99xui64>) -> tensor<99xui32>\n    %11:2 = call @threefry2x32_2(%1, %3, %10, %9) : (tensor<ui32>, tensor<ui32>, tensor<99xui32>, tensor<99xui32>) -> (tensor<99xui32>, tensor<99xui32>)\n    %12 = stablehlo.broadcast_in_dim %11#0, dims = [0] : (tensor<99xui32>) -> tensor<99x1xui32>\n    %13 = stablehlo.broadcast_in_dim %11#1, dims = [0] : (tensor<99xui32>) -> tensor<99x1xui32>\n    %14 = stablehlo.concatenate %12, %13, dim = 1 : (tensor<99x1xui32>, tensor<99x1xui32>) -> tensor<99x2xui32>\n    return %14 : tensor<99x2xui32>\n  }\n  func.func private @threefry2x32_2(%arg0: tensor<ui32>, %arg1: tensor<ui32>, %arg2: tensor<99xui32>, %arg3: tensor<99xui32>) -> (tensor<99xui32>, tensor<99xui32>) {\n    %0 = stablehlo.xor %arg0, %arg1 : tensor<ui32>\n    %c = stablehlo.constant dense<466688986> : tensor<ui32>\n    %1 = stablehlo.xor %0, %c : tensor<ui32>\n    %2 = stablehlo.broadcast_in_dim %arg0, dims = [] : (tensor<ui32>) -> tensor<99xui32>\n    %3 = stablehlo.add %arg2, %2 : tensor<99xui32>\n    %4 = stablehlo.broadcast_in_dim %arg1, dims = [] : (tensor<ui32>) -> tensor<99xui32>\n    %5 = stablehlo.add %arg3, %4 : tensor<99xui32>\n    %6 = stablehlo.add %3, %5 : tensor<99xui32>\n    %c_0 = stablehlo.constant dense<13> : tensor<ui32>\n    %7 = stablehlo.broadcast_in_dim %c_0, dims = [] : (tensor<ui32>) -> tensor<99xui32>\n    %8 = stablehlo.shift_left %5, %7 : tensor<99xui32>\n    %c_1 = stablehlo.constant dense<19> : tensor<ui32>\n    %9 = stablehlo.broadcast_in_dim %c_1, dims = [] : (tensor<ui32>) -> tensor<99xui32>\n    %10 = stablehlo.shift_right_logical %5, %9 : tensor<99xui32>\n    %11 = stablehlo.or %8, %10 : tensor<99xui32>\n    %12 = stablehlo.xor %6, %11 : tensor<99xui32>\n    %13 = stablehlo.add %6, %12 : tensor<99xui32>\n    %c_2 = stablehlo.constant dense<15> : tensor<ui32>\n    %14 = stablehlo.broadcast_in_dim %c_2, dims = [] : (tensor<ui32>) -> tensor<99xui32>\n    %15 = stablehlo.shift_left %12, %14 : tensor<99xui32>\n    %c_3 = stablehlo.constant dense<17> : tensor<ui32>\n    %16 = stablehlo.broadcast_in_dim %c_3, dims = [] : (tensor<ui32>) -> tensor<99xui32>\n    %17 = stablehlo.shift_right_logical %12, %16 : tensor<99xui32>\n    %18 = stablehlo.or %15, %17 : tensor<99xui32>\n    %19 = stablehlo.xor %13, %18 : tensor<99xui32>\n    %20 = stablehlo.add %13, %19 : tensor<99xui32>\n    %c_4 = stablehlo.constant dense<26> : tensor<ui32>\n    %21 = stablehlo.broadcast_in_dim %c_4, dims = [] : (tensor<ui32>) -> tensor<99xui32>\n    %22 = stablehlo.shift_left %19, %21 : tensor<99xui32>\n    %c_5 = stablehlo.constant dense<6> : tensor<ui32>\n    %23 = stablehlo.broadcast_in_dim %c_5, dims = [] : (tensor<ui32>) -> tensor<99xui32>\n    %24 = stablehlo.shift_right_logical %19, %23 : tensor<99xui32>\n    %25 = stablehlo.or %22, %24 : tensor<99xui32>\n    %26 = stablehlo.xor %20, %25 : tensor<99xui32>\n    %27 = stablehlo.add %20, %26 : tensor<99xui32>\n    %c_6 = stablehlo.constant dense<6> : tensor<ui32>\n    %28 = stablehlo.broadcast_in_dim %c_6, dims = [] : (tensor<ui32>) -> tensor<99xui32>\n    %29 = stablehlo.shift_left %26, %28 : tensor<99xui32>\n    %c_7 = stablehlo.constant dense<26> : tensor<ui32>\n    %30 = stablehlo.broadcast_in_dim %c_7, dims = [] : (tensor<ui32>) -> tensor<99xui32>\n    %31 = stablehlo.shift_right_logical %26, %30 : tensor<99xui32>\n    %32 = stablehlo.or %29, %31 : tensor<99xui32>\n    %33 = stablehlo.xor %27, %32 : tensor<99xui32>\n    %34 = stablehlo.broadcast_in_dim %arg1, dims = [] : (tensor<ui32>) -> tensor<99xui32>\n    %35 = stablehlo.add %27, %34 : tensor<99xui32>\n    %36 = stablehlo.broadcast_in_dim %1, dims = [] : (tensor<ui32>) -> tensor<99xui32>\n    %37 = stablehlo.add %33, %36 : tensor<99xui32>\n    %c_8 = stablehlo.constant dense<1> : tensor<ui32>\n    %38 = stablehlo.broadcast_in_dim %c_8, dims = [] : (tensor<ui32>) -> tensor<99xui32>\n    %39 = stablehlo.add %37, %38 : tensor<99xui32>\n    %40 = stablehlo.add %35, %39 : tensor<99xui32>\n    %c_9 = stablehlo.constant dense<17> : tensor<ui32>\n    %41 = stablehlo.broadcast_in_dim %c_9, dims = [] : (tensor<ui32>) -> tensor<99xui32>\n    %42 = stablehlo.shift_left %39, %41 : tensor<99xui32>\n    %c_10 = stablehlo.constant dense<15> : tensor<ui32>\n    %43 = stablehlo.broadcast_in_dim %c_10, dims = [] : (tensor<ui32>) -> tensor<99xui32>\n    %44 = stablehlo.shift_right_logical %39, %43 : tensor<99xui32>\n    %45 = stablehlo.or %42, %44 : tensor<99xui32>\n    %46 = stablehlo.xor %40, %45 : tensor<99xui32>\n    %47 = stablehlo.add %40, %46 : tensor<99xui32>\n    %c_11 = stablehlo.constant dense<29> : tensor<ui32>\n    %48 = stablehlo.broadcast_in_dim %c_11, dims = [] : (tensor<ui32>) -> tensor<99xui32>\n    %49 = stablehlo.shift_left %46, %48 : tensor<99xui32>\n    %c_12 = stablehlo.constant dense<3> : tensor<ui32>\n    %50 = stablehlo.broadcast_in_dim %c_12, dims = [] : (tensor<ui32>) -> tensor<99xui32>\n    %51 = stablehlo.shift_right_logical %46, %50 : tensor<99xui32>\n    %52 = stablehlo.or %49, %51 : tensor<99xui32>\n    %53 = stablehlo.xor %47, %52 : tensor<99xui32>\n    %54 = stablehlo.add %47, %53 : tensor<99xui32>\n    %c_13 = stablehlo.constant dense<16> : tensor<ui32>\n    %55 = stablehlo.broadcast_in_dim %c_13, dims = [] : (tensor<ui32>) -> tensor<99xui32>\n    %56 = stablehlo.shift_left %53, %55 : tensor<99xui32>\n    %c_14 = stablehlo.constant dense<16> : tensor<ui32>\n    %57 = stablehlo.broadcast_in_dim %c_14, dims = [] : (tensor<ui32>) -> tensor<99xui32>\n    %58 = stablehlo.shift_right_logical %53, %57 : tensor<99xui32>\n    %59 = stablehlo.or %56, %58 : tensor<99xui32>\n    %60 = stablehlo.xor %54, %59 : tensor<99xui32>\n    %61 = stablehlo.add %54, %60 : tensor<99xui32>\n    %c_15 = stablehlo.constant dense<24> : tensor<ui32>\n    %62 = stablehlo.broadcast_in_dim %c_15, dims = [] : (tensor<ui32>) -> tensor<99xui32>\n    %63 = stablehlo.shift_left %60, %62 : tensor<99xui32>\n    %c_16 = stablehlo.constant dense<8> : tensor<ui32>\n    %64 = stablehlo.broadcast_in_dim %c_16, dims = [] : (tensor<ui32>) -> tensor<99xui32>\n    %65 = stablehlo.shift_right_logical %60, %64 : tensor<99xui32>\n    %66 = stablehlo.or %63, %65 : tensor<99xui32>\n    %67 = stablehlo.xor %61, %66 : tensor<99xui32>\n    %68 = stablehlo.broadcast_in_dim %1, dims = [] : (tensor<ui32>) -> tensor<99xui32>\n    %69 = stablehlo.add %61, %68 : tensor<99xui32>\n    %70 = stablehlo.broadcast_in_dim %arg0, dims = [] : (tensor<ui32>) -> tensor<99xui32>\n    %71 = stablehlo.add %67, %70 : tensor<99xui32>\n    %c_17 = stablehlo.constant dense<2> : tensor<ui32>\n    %72 = stablehlo.broadcast_in_dim %c_17, dims = [] : (tensor<ui32>) -> tensor<99xui32>\n    %73 = stablehlo.add %71, %72 : tensor<99xui32>\n    %74 = stablehlo.add %69, %73 : tensor<99xui32>\n    %c_18 = stablehlo.constant dense<13> : tensor<ui32>\n    %75 = stablehlo.broadcast_in_dim %c_18, dims = [] : (tensor<ui32>) -> tensor<99xui32>\n    %76 = stablehlo.shift_left %73, %75 : tensor<99xui32>\n    %c_19 = stablehlo.constant dense<19> : tensor<ui32>\n    %77 = stablehlo.broadcast_in_dim %c_19, dims = [] : (tensor<ui32>) -> tensor<99xui32>\n    %78 = stablehlo.shift_right_logical %73, %77 : tensor<99xui32>\n    %79 = stablehlo.or %76, %78 : tensor<99xui32>\n    %80 = stablehlo.xor %74, %79 : tensor<99xui32>\n    %81 = stablehlo.add %74, %80 : tensor<99xui32>\n    %c_20 = stablehlo.constant dense<15> : tensor<ui32>\n    %82 = stablehlo.broadcast_in_dim %c_20, dims = [] : (tensor<ui32>) -> tensor<99xui32>\n    %83 = stablehlo.shift_left %80, %82 : tensor<99xui32>\n    %c_21 = stablehlo.constant dense<17> : tensor<ui32>\n    %84 = stablehlo.broadcast_in_dim %c_21, dims = [] : (tensor<ui32>) -> tensor<99xui32>\n    %85 = stablehlo.shift_right_logical %80, %84 : tensor<99xui32>\n    %86 = stablehlo.or %83, %85 : tensor<99xui32>\n    %87 = stablehlo.xor %81, %86 : tensor<99xui32>\n    %88 = stablehlo.add %81, %87 : tensor<99xui32>\n    %c_22 = stablehlo.constant dense<26> : tensor<ui32>\n    %89 = stablehlo.broadcast_in_dim %c_22, dims = [] : (tensor<ui32>) -> tensor<99xui32>\n    %90 = stablehlo.shift_left %87, %89 : tensor<99xui32>\n    %c_23 = stablehlo.constant dense<6> : tensor<ui32>\n    %91 = stablehlo.broadcast_in_dim %c_23, dims = [] : (tensor<ui32>) -> tensor<99xui32>\n    %92 = stablehlo.shift_right_logical %87, %91 : tensor<99xui32>\n    %93 = stablehlo.or %90, %92 : tensor<99xui32>\n    %94 = stablehlo.xor %88, %93 : tensor<99xui32>\n    %95 = stablehlo.add %88, %94 : tensor<99xui32>\n    %c_24 = stablehlo.constant dense<6> : tensor<ui32>\n    %96 = stablehlo.broadcast_in_dim %c_24, dims = [] : (tensor<ui32>) -> tensor<99xui32>\n    %97 = stablehlo.shift_left %94, %96 : tensor<99xui32>\n    %c_25 = stablehlo.constant dense<26> : tensor<ui32>\n    %98 = stablehlo.broadcast_in_dim %c_25, dims = [] : (tensor<ui32>) -> tensor<99xui32>\n    %99 = stablehlo.shift_right_logical %94, %98 : tensor<99xui32>\n    %100 = stablehlo.or %97, %99 : tensor<99xui32>\n    %101 = stablehlo.xor %95, %100 : tensor<99xui32>\n    %102 = stablehlo.broadcast_in_dim %arg0, dims = [] : (tensor<ui32>) -> tensor<99xui32>\n    %103 = stablehlo.add %95, %102 : tensor<99xui32>\n    %104 = stablehlo.broadcast_in_dim %arg1, dims = [] : (tensor<ui32>) -> tensor<99xui32>\n    %105 = stablehlo.add %101, %104 : tensor<99xui32>\n    %c_26 = stablehlo.constant dense<3> : tensor<ui32>\n    %106 = stablehlo.broadcast_in_dim %c_26, dims = [] : (tensor<ui32>) -> tensor<99xui32>\n    %107 = stablehlo.add %105, %106 : tensor<99xui32>\n    %108 = stablehlo.add %103, %107 : tensor<99xui32>\n    %c_27 = stablehlo.constant dense<17> : tensor<ui32>\n    %109 = stablehlo.broadcast_in_dim %c_27, dims = [] : (tensor<ui32>) -> tensor<99xui32>\n    %110 = stablehlo.shift_left %107, %109 : tensor<99xui32>\n    %c_28 = stablehlo.constant dense<15> : tensor<ui32>\n    %111 = stablehlo.broadcast_in_dim %c_28, dims = [] : (tensor<ui32>) -> tensor<99xui32>\n    %112 = stablehlo.shift_right_logical %107, %111 : tensor<99xui32>\n    %113 = stablehlo.or %110, %112 : tensor<99xui32>\n    %114 = stablehlo.xor %108, %113 : tensor<99xui32>\n    %115 = stablehlo.add %108, %114 : tensor<99xui32>\n    %c_29 = stablehlo.constant dense<29> : tensor<ui32>\n    %116 = stablehlo.broadcast_in_dim %c_29, dims = [] : (tensor<ui32>) -> tensor<99xui32>\n    %117 = stablehlo.shift_left %114, %116 : tensor<99xui32>\n    %c_30 = stablehlo.constant dense<3> : tensor<ui32>\n    %118 = stablehlo.broadcast_in_dim %c_30, dims = [] : (tensor<ui32>) -> tensor<99xui32>\n    %119 = stablehlo.shift_right_logical %114, %118 : tensor<99xui32>\n    %120 = stablehlo.or %117, %119 : tensor<99xui32>\n    %121 = stablehlo.xor %115, %120 : tensor<99xui32>\n    %122 = stablehlo.add %115, %121 : tensor<99xui32>\n    %c_31 = stablehlo.constant dense<16> : tensor<ui32>\n    %123 = stablehlo.broadcast_in_dim %c_31, dims = [] : (tensor<ui32>) -> tensor<99xui32>\n    %124 = stablehlo.shift_left %121, %123 : tensor<99xui32>\n    %c_32 = stablehlo.constant dense<16> : tensor<ui32>\n    %125 = stablehlo.broadcast_in_dim %c_32, dims = [] : (tensor<ui32>) -> tensor<99xui32>\n    %126 = stablehlo.shift_right_logical %121, %125 : tensor<99xui32>\n    %127 = stablehlo.or %124, %126 : tensor<99xui32>\n    %128 = stablehlo.xor %122, %127 : tensor<99xui32>\n    %129 = stablehlo.add %122, %128 : tensor<99xui32>\n    %c_33 = stablehlo.constant dense<24> : tensor<ui32>\n    %130 = stablehlo.broadcast_in_dim %c_33, dims = [] : (tensor<ui32>) -> tensor<99xui32>\n    %131 = stablehlo.shift_left %128, %130 : tensor<99xui32>\n    %c_34 = stablehlo.constant dense<8> : tensor<ui32>\n    %132 = stablehlo.broadcast_in_dim %c_34, dims = [] : (tensor<ui32>) -> tensor<99xui32>\n    %133 = stablehlo.shift_right_logical %128, %132 : tensor<99xui32>\n    %134 = stablehlo.or %131, %133 : tensor<99xui32>\n    %135 = stablehlo.xor %129, %134 : tensor<99xui32>\n    %136 = stablehlo.broadcast_in_dim %arg1, dims = [] : (tensor<ui32>) -> tensor<99xui32>\n    %137 = stablehlo.add %129, %136 : tensor<99xui32>\n    %138 = stablehlo.broadcast_in_dim %1, dims = [] : (tensor<ui32>) -> tensor<99xui32>\n    %139 = stablehlo.add %135, %138 : tensor<99xui32>\n    %c_35 = stablehlo.constant dense<4> : tensor<ui32>\n    %140 = stablehlo.broadcast_in_dim %c_35, dims = [] : (tensor<ui32>) -> tensor<99xui32>\n    %141 = stablehlo.add %139, %140 : tensor<99xui32>\n    %142 = stablehlo.add %137, %141 : tensor<99xui32>\n    %c_36 = stablehlo.constant dense<13> : tensor<ui32>\n    %143 = stablehlo.broadcast_in_dim %c_36, dims = [] : (tensor<ui32>) -> tensor<99xui32>\n    %144 = stablehlo.shift_left %141, %143 : tensor<99xui32>\n    %c_37 = stablehlo.constant dense<19> : tensor<ui32>\n    %145 = stablehlo.broadcast_in_dim %c_37, dims = [] : (tensor<ui32>) -> tensor<99xui32>\n    %146 = stablehlo.shift_right_logical %141, %145 : tensor<99xui32>\n    %147 = stablehlo.or %144, %146 : tensor<99xui32>\n    %148 = stablehlo.xor %142, %147 : tensor<99xui32>\n    %149 = stablehlo.add %142, %148 : tensor<99xui32>\n    %c_38 = stablehlo.constant dense<15> : tensor<ui32>\n    %150 = stablehlo.broadcast_in_dim %c_38, dims = [] : (tensor<ui32>) -> tensor<99xui32>\n    %151 = stablehlo.shift_left %148, %150 : tensor<99xui32>\n    %c_39 = stablehlo.constant dense<17> : tensor<ui32>\n    %152 = stablehlo.broadcast_in_dim %c_39, dims = [] : (tensor<ui32>) -> tensor<99xui32>\n    %153 = stablehlo.shift_right_logical %148, %152 : tensor<99xui32>\n    %154 = stablehlo.or %151, %153 : tensor<99xui32>\n    %155 = stablehlo.xor %149, %154 : tensor<99xui32>\n    %156 = stablehlo.add %149, %155 : tensor<99xui32>\n    %c_40 = stablehlo.constant dense<26> : tensor<ui32>\n    %157 = stablehlo.broadcast_in_dim %c_40, dims = [] : (tensor<ui32>) -> tensor<99xui32>\n    %158 = stablehlo.shift_left %155, %157 : tensor<99xui32>\n    %c_41 = stablehlo.constant dense<6> : tensor<ui32>\n    %159 = stablehlo.broadcast_in_dim %c_41, dims = [] : (tensor<ui32>) -> tensor<99xui32>\n    %160 = stablehlo.shift_right_logical %155, %159 : tensor<99xui32>\n    %161 = stablehlo.or %158, %160 : tensor<99xui32>\n    %162 = stablehlo.xor %156, %161 : tensor<99xui32>\n    %163 = stablehlo.add %156, %162 : tensor<99xui32>\n    %c_42 = stablehlo.constant dense<6> : tensor<ui32>\n    %164 = stablehlo.broadcast_in_dim %c_42, dims = [] : (tensor<ui32>) -> tensor<99xui32>\n    %165 = stablehlo.shift_left %162, %164 : tensor<99xui32>\n    %c_43 = stablehlo.constant dense<26> : tensor<ui32>\n    %166 = stablehlo.broadcast_in_dim %c_43, dims = [] : (tensor<ui32>) -> tensor<99xui32>\n    %167 = stablehlo.shift_right_logical %162, %166 : tensor<99xui32>\n    %168 = stablehlo.or %165, %167 : tensor<99xui32>\n    %169 = stablehlo.xor %163, %168 : tensor<99xui32>\n    %170 = stablehlo.broadcast_in_dim %1, dims = [] : (tensor<ui32>) -> tensor<99xui32>\n    %171 = stablehlo.add %163, %170 : tensor<99xui32>\n    %172 = stablehlo.broadcast_in_dim %arg0, dims = [] : (tensor<ui32>) -> tensor<99xui32>\n    %173 = stablehlo.add %169, %172 : tensor<99xui32>\n    %c_44 = stablehlo.constant dense<5> : tensor<ui32>\n    %174 = stablehlo.broadcast_in_dim %c_44, dims = [] : (tensor<ui32>) -> tensor<99xui32>\n    %175 = stablehlo.add %173, %174 : tensor<99xui32>\n    return %171, %175 : tensor<99xui32>, tensor<99xui32>\n  }\n  func.func private @dynamic_index_in_dim(%arg0: tensor<99x2xui32>, %arg1: tensor<i32>) -> tensor<2xui32> {\n    %c = stablehlo.constant dense<0> : tensor<i32>\n    %0 = stablehlo.dynamic_slice %arg0, %arg1, %c, sizes = [1, 2] : (tensor<99x2xui32>, tensor<i32>, tensor<i32>) -> tensor<1x2xui32>\n    %1 = stablehlo.reshape %0 : (tensor<1x2xui32>) -> tensor<2xui32>\n    return %1 : tensor<2xui32>\n  }\n  func.func private @dynamic_index_in_dim_3(%arg0: tensor<99xf32>, %arg1: tensor<i32>) -> tensor<f32> {\n    %0 = stablehlo.dynamic_slice %arg0, %arg1, sizes = [1] : (tensor<99xf32>, tensor<i32>) -> tensor<1xf32>\n    %1 = stablehlo.reshape %0 : (tensor<1xf32>) -> tensor<f32>\n    return %1 : tensor<f32>\n  }\n  func.func private @closed_call(%arg0: tensor<1000000xi32>, %arg1: tensor<1000000x1xf32>, %arg2: tensor<1000000xf32>, %arg3: tensor<f32>, %arg4: tensor<2xui32>, %arg5: tensor<f32>) -> (tensor<1000000x1xf32>, tensor<1000000xf32>, tensor<f32>, tensor<1000000x1xf32>, tensor<1000000xf32>, tensor<1000000xi32>, tensor<f32>, tensor<f32>) {\n    %0 = call @_threefry_split(%arg4) : (tensor<2xui32>) -> tensor<2x2xui32>\n    %1 = stablehlo.slice %0 [0:1, 0:2] : (tensor<2x2xui32>) -> tensor<1x2xui32>\n    %2 = stablehlo.reshape %1 : (tensor<1x2xui32>) -> tensor<2xui32>\n    %3 = stablehlo.slice %0 [1:2, 0:2] : (tensor<2x2xui32>) -> tensor<1x2xui32>\n    %4 = stablehlo.reshape %3 : (tensor<1x2xui32>) -> tensor<2xui32>\n    %cst = stablehlo.constant dense<2.000000e+00> : tensor<f32>\n    %5 = stablehlo.broadcast_in_dim %cst, dims = [] : (tensor<f32>) -> tensor<1000000xf32>\n    %6 = stablehlo.multiply %5, %arg2 : tensor<1000000xf32>\n    %7 = stablehlo.exponential %6 : tensor<1000000xf32>\n    %cst_0 = stablehlo.constant dense<0.000000e+00> : tensor<f32>\n    %8 = stablehlo.reduce(%7 init: %cst_0) applies stablehlo.add across dimensions = [0] : (tensor<1000000xf32>, tensor<f32>) -> tensor<f32>\n    %cst_1 = stablehlo.constant dense<1.000000e+00> : tensor<f32>\n    %9 = stablehlo.divide %cst_1, %8 : tensor<f32>\n    %cst_2 = stablehlo.constant dense<5.000000e+05> : tensor<f32>\n    %10 = stablehlo.compare LT, %9, %cst_2, FLOAT : (tensor<f32>, tensor<f32>) -> tensor<i1>\n    %11 = stablehlo.convert %10 : (tensor<i1>) -> tensor<i32>\n    %12:2 = \"stablehlo.case\"(%11) ({\n      stablehlo.return %arg1, %arg0 : tensor<1000000x1xf32>, tensor<1000000xi32>\n    }, {\n      %48 = stablehlo.exponential %arg2 : tensor<1000000xf32>\n      %49 = func.call @cumsum(%48) : (tensor<1000000xf32>) -> tensor<1000000xf32>\n      %50 = stablehlo.slice %49 [999999:1000000] : (tensor<1000000xf32>) -> tensor<1xf32>\n      %51 = stablehlo.reshape %50 : (tensor<1xf32>) -> tensor<f32>\n      %52 = stablehlo.broadcast_in_dim %51, dims = [] : (tensor<f32>) -> tensor<1000000xf32>\n      %53 = stablehlo.divide %49, %52 : tensor<1000000xf32>\n      %cst_14 = stablehlo.constant dense<0.000000e+00> : tensor<f32>\n      %cst_15 = stablehlo.constant dense<1.000000e+00> : tensor<f32>\n      %54 = func.call @_uniform_5(%2, %cst_14, %cst_15) : (tensor<2xui32>, tensor<f32>, tensor<f32>) -> tensor<f32>\n      %55 = stablehlo.iota dim = 0 : tensor<1000000xi32>\n      %56 = stablehlo.convert %55 : (tensor<1000000xi32>) -> tensor<1000000xf32>\n      %57 = stablehlo.broadcast_in_dim %54, dims = [] : (tensor<f32>) -> tensor<1000000xf32>\n      %58 = stablehlo.add %57, %56 : tensor<1000000xf32>\n      %cst_16 = stablehlo.constant dense<1.000000e+06> : tensor<f32>\n      %59 = stablehlo.broadcast_in_dim %cst_16, dims = [] : (tensor<f32>) -> tensor<1000000xf32>\n      %60 = stablehlo.divide %58, %59 : tensor<1000000xf32>\n      %61 = func.call @searchsorted(%53, %60) : (tensor<1000000xf32>, tensor<1000000xf32>) -> tensor<1000000xi32>\n      %c = stablehlo.constant dense<0> : tensor<i32>\n      %c_17 = stablehlo.constant dense<999999> : tensor<i32>\n      %62 = func.call @clip(%61, %c, %c_17) : (tensor<1000000xi32>, tensor<i32>, tensor<i32>) -> tensor<1000000xi32>\n      %63 = func.call @_take(%arg1, %62) : (tensor<1000000x1xf32>, tensor<1000000xi32>) -> tensor<1000000x1xf32>\n      stablehlo.return %63, %62 : tensor<1000000x1xf32>, tensor<1000000xi32>\n    }) : (tensor<i32>) -> (tensor<1000000x1xf32>, tensor<1000000xi32>)\n    %13 = call @_normal(%4) : (tensor<2xui32>) -> tensor<1000000x1xf32>\n    %cst_3 = stablehlo.constant dense<0.899999976> : tensor<f32>\n    %14 = stablehlo.broadcast_in_dim %cst_3, dims = [] : (tensor<f32>) -> tensor<1000000x1xf32>\n    %15 = stablehlo.multiply %14, %12#0 : tensor<1000000x1xf32>\n    %cst_4 = stablehlo.constant dense<0.707106769> : tensor<f32>\n    %16 = stablehlo.broadcast_in_dim %cst_4, dims = [] : (tensor<f32>) -> tensor<1000000x1xf32>\n    %17 = stablehlo.multiply %16, %13 : tensor<1000000x1xf32>\n    %18 = stablehlo.add %15, %17 : tensor<1000000x1xf32>\n    %19 = stablehlo.reshape %18 : (tensor<1000000x1xf32>) -> tensor<1000000xf32>\n    %20 = stablehlo.broadcast_in_dim %arg5, dims = [] : (tensor<f32>) -> tensor<1000000xf32>\n    %21 = stablehlo.subtract %20, %19 : tensor<1000000xf32>\n    %22 = stablehlo.multiply %21, %21 : tensor<1000000xf32>\n    %cst_5 = stablehlo.constant dense<3.000000e-01> : tensor<f32>\n    %23 = stablehlo.broadcast_in_dim %cst_5, dims = [] : (tensor<f32>) -> tensor<1000000xf32>\n    %24 = stablehlo.divide %22, %23 : tensor<1000000xf32>\n    %cst_6 = stablehlo.constant dense<0.633904278> : tensor<f32>\n    %25 = stablehlo.broadcast_in_dim %cst_6, dims = [] : (tensor<f32>) -> tensor<1000000xf32>\n    %26 = stablehlo.add %25, %24 : tensor<1000000xf32>\n    %cst_7 = stablehlo.constant dense<-5.000000e-01> : tensor<f32>\n    %27 = stablehlo.broadcast_in_dim %cst_7, dims = [] : (tensor<f32>) -> tensor<1000000xf32>\n    %28 = stablehlo.multiply %27, %26 : tensor<1000000xf32>\n    %29 = stablehlo.add %arg2, %28 : tensor<1000000xf32>\n    %30 = call @_where_9(%10, %28, %29) : (tensor<i1>, tensor<1000000xf32>, tensor<1000000xf32>) -> tensor<1000000xf32>\n    %cst_8 = stablehlo.constant dense<0xFF800000> : tensor<f32>\n    %31 = stablehlo.reduce(%30 init: %cst_8) applies stablehlo.maximum across dimensions = [0] : (tensor<1000000xf32>, tensor<f32>) -> tensor<f32>\n    %32 = stablehlo.broadcast_in_dim %31, dims = [] : (tensor<f32>) -> tensor<1000000xf32>\n    %33 = stablehlo.subtract %30, %32 : tensor<1000000xf32>\n    %34 = stablehlo.exponential %33 : tensor<1000000xf32>\n    %cst_9 = stablehlo.constant dense<0.000000e+00> : tensor<f32>\n    %35 = stablehlo.reduce(%34 init: %cst_9) applies stablehlo.add across dimensions = [0] : (tensor<1000000xf32>, tensor<f32>) -> tensor<f32>\n    %36 = stablehlo.log %35 : tensor<f32>\n    %37 = stablehlo.add %31, %36 : tensor<f32>\n    %38 = stablehlo.broadcast_in_dim %37, dims = [] : (tensor<f32>) -> tensor<1000000xf32>\n    %39 = stablehlo.subtract %30, %38 : tensor<1000000xf32>\n    %cst_10 = stablehlo.constant dense<13.8155107> : tensor<f32>\n    %40 = stablehlo.subtract %37, %cst_10 : tensor<f32>\n    %41 = call @_where_10(%10, %40, %37) : (tensor<i1>, tensor<f32>, tensor<f32>) -> tensor<f32>\n    %cst_11 = stablehlo.constant dense<2.000000e+00> : tensor<f32>\n    %42 = stablehlo.broadcast_in_dim %cst_11, dims = [] : (tensor<f32>) -> tensor<1000000xf32>\n    %43 = stablehlo.multiply %42, %39 : tensor<1000000xf32>\n    %44 = stablehlo.exponential %43 : tensor<1000000xf32>\n    %cst_12 = stablehlo.constant dense<0.000000e+00> : tensor<f32>\n    %45 = stablehlo.reduce(%44 init: %cst_12) applies stablehlo.add across dimensions = [0] : (tensor<1000000xf32>, tensor<f32>) -> tensor<f32>\n    %cst_13 = stablehlo.constant dense<1.000000e+00> : tensor<f32>\n    %46 = stablehlo.divide %cst_13, %45 : tensor<f32>\n    %47 = stablehlo.add %arg3, %41 : tensor<f32>\n    return %18, %39, %47, %18, %39, %12#1, %46, %41 : tensor<1000000x1xf32>, tensor<1000000xf32>, tensor<f32>, tensor<1000000x1xf32>, tensor<1000000xf32>, tensor<1000000xi32>, tensor<f32>, tensor<f32>\n  }\n  func.func private @cumsum(%arg0: tensor<1000000xf32>) -> tensor<1000000xf32> {\n    %0 = call @cumsum_4(%arg0) : (tensor<1000000xf32>) -> tensor<1000000xf32>\n    return %0 : tensor<1000000xf32>\n  }\n  func.func private @cumsum_4(%arg0: tensor<1000000xf32>) -> tensor<1000000xf32> {\n    %cst = stablehlo.constant dense<0.000000e+00> : tensor<f32>\n    %0 = stablehlo.broadcast_in_dim %cst, dims = [] : (tensor<f32>) -> tensor<f32>\n    %1 = \"stablehlo.reduce_window\"(%arg0, %0) <{base_dilations = array<i64: 1>, padding = dense<[[999999, 0]]> : tensor<1x2xi64>, window_dilations = array<i64: 1>, window_dimensions = array<i64: 1000000>, window_strides = array<i64: 1>}> ({\n    ^bb0(%arg1: tensor<f32>, %arg2: tensor<f32>):\n      %2 = stablehlo.add %arg1, %arg2 : tensor<f32>\n      stablehlo.return %2 : tensor<f32>\n    }) : (tensor<1000000xf32>, tensor<f32>) -> tensor<1000000xf32>\n    return %1 : tensor<1000000xf32>\n  }\n  func.func private @_uniform_5(%arg0: tensor<2xui32>, %arg1: tensor<f32>, %arg2: tensor<f32>) -> tensor<f32> {\n    %0 = stablehlo.convert %arg1 : tensor<f32>\n    %1 = stablehlo.convert %arg2 : tensor<f32>\n    %2 = stablehlo.slice %arg0 [0:1] : (tensor<2xui32>) -> tensor<1xui32>\n    %3 = stablehlo.reshape %2 : (tensor<1xui32>) -> tensor<ui32>\n    %4 = stablehlo.slice %arg0 [1:2] : (tensor<2xui32>) -> tensor<1xui32>\n    %5 = stablehlo.reshape %4 : (tensor<1xui32>) -> tensor<ui32>\n    %c = stablehlo.constant dense<0> : tensor<ui32>\n    %c_0 = stablehlo.constant dense<0> : tensor<ui32>\n    %6:2 = call @threefry2x32_6(%3, %5, %c, %c_0) : (tensor<ui32>, tensor<ui32>, tensor<ui32>, tensor<ui32>) -> (tensor<ui32>, tensor<ui32>)\n    %7 = stablehlo.xor %6#0, %6#1 : tensor<ui32>\n    %c_1 = stablehlo.constant dense<9> : tensor<ui32>\n    %8 = stablehlo.shift_right_logical %7, %c_1 : tensor<ui32>\n    %c_2 = stablehlo.constant dense<1065353216> : tensor<ui32>\n    %9 = stablehlo.or %8, %c_2 : tensor<ui32>\n    %10 = stablehlo.bitcast_convert %9 : (tensor<ui32>) -> tensor<f32>\n    %cst = stablehlo.constant dense<1.000000e+00> : tensor<f32>\n    %11 = stablehlo.subtract %10, %cst : tensor<f32>\n    %12 = stablehlo.subtract %1, %0 : tensor<f32>\n    %13 = stablehlo.multiply %11, %12 : tensor<f32>\n    %14 = stablehlo.add %13, %0 : tensor<f32>\n    %15 = stablehlo.reshape %14 : (tensor<f32>) -> tensor<f32>\n    %16 = stablehlo.maximum %0, %15 : tensor<f32>\n    return %16 : tensor<f32>\n  }\n  func.func private @threefry2x32_6(%arg0: tensor<ui32>, %arg1: tensor<ui32>, %arg2: tensor<ui32>, %arg3: tensor<ui32>) -> (tensor<ui32>, tensor<ui32>) {\n    %0 = stablehlo.xor %arg0, %arg1 : tensor<ui32>\n    %c = stablehlo.constant dense<466688986> : tensor<ui32>\n    %1 = stablehlo.xor %0, %c : tensor<ui32>\n    %2 = stablehlo.add %arg2, %arg0 : tensor<ui32>\n    %3 = stablehlo.add %arg3, %arg1 : tensor<ui32>\n    %4 = stablehlo.add %2, %3 : tensor<ui32>\n    %c_0 = stablehlo.constant dense<13> : tensor<ui32>\n    %5 = stablehlo.shift_left %3, %c_0 : tensor<ui32>\n    %c_1 = stablehlo.constant dense<19> : tensor<ui32>\n    %6 = stablehlo.shift_right_logical %3, %c_1 : tensor<ui32>\n    %7 = stablehlo.or %5, %6 : tensor<ui32>\n    %8 = stablehlo.xor %4, %7 : tensor<ui32>\n    %9 = stablehlo.add %4, %8 : tensor<ui32>\n    %c_2 = stablehlo.constant dense<15> : tensor<ui32>\n    %10 = stablehlo.shift_left %8, %c_2 : tensor<ui32>\n    %c_3 = stablehlo.constant dense<17> : tensor<ui32>\n    %11 = stablehlo.shift_right_logical %8, %c_3 : tensor<ui32>\n    %12 = stablehlo.or %10, %11 : tensor<ui32>\n    %13 = stablehlo.xor %9, %12 : tensor<ui32>\n    %14 = stablehlo.add %9, %13 : tensor<ui32>\n    %c_4 = stablehlo.constant dense<26> : tensor<ui32>\n    %15 = stablehlo.shift_left %13, %c_4 : tensor<ui32>\n    %c_5 = stablehlo.constant dense<6> : tensor<ui32>\n    %16 = stablehlo.shift_right_logical %13, %c_5 : tensor<ui32>\n    %17 = stablehlo.or %15, %16 : tensor<ui32>\n    %18 = stablehlo.xor %14, %17 : tensor<ui32>\n    %19 = stablehlo.add %14, %18 : tensor<ui32>\n    %c_6 = stablehlo.constant dense<6> : tensor<ui32>\n    %20 = stablehlo.shift_left %18, %c_6 : tensor<ui32>\n    %c_7 = stablehlo.constant dense<26> : tensor<ui32>\n    %21 = stablehlo.shift_right_logical %18, %c_7 : tensor<ui32>\n    %22 = stablehlo.or %20, %21 : tensor<ui32>\n    %23 = stablehlo.xor %19, %22 : tensor<ui32>\n    %24 = stablehlo.add %19, %arg1 : tensor<ui32>\n    %25 = stablehlo.add %23, %1 : tensor<ui32>\n    %c_8 = stablehlo.constant dense<1> : tensor<ui32>\n    %26 = stablehlo.add %25, %c_8 : tensor<ui32>\n    %27 = stablehlo.add %24, %26 : tensor<ui32>\n    %c_9 = stablehlo.constant dense<17> : tensor<ui32>\n    %28 = stablehlo.shift_left %26, %c_9 : tensor<ui32>\n    %c_10 = stablehlo.constant dense<15> : tensor<ui32>\n    %29 = stablehlo.shift_right_logical %26, %c_10 : tensor<ui32>\n    %30 = stablehlo.or %28, %29 : tensor<ui32>\n    %31 = stablehlo.xor %27, %30 : tensor<ui32>\n    %32 = stablehlo.add %27, %31 : tensor<ui32>\n    %c_11 = stablehlo.constant dense<29> : tensor<ui32>\n    %33 = stablehlo.shift_left %31, %c_11 : tensor<ui32>\n    %c_12 = stablehlo.constant dense<3> : tensor<ui32>\n    %34 = stablehlo.shift_right_logical %31, %c_12 : tensor<ui32>\n    %35 = stablehlo.or %33, %34 : tensor<ui32>\n    %36 = stablehlo.xor %32, %35 : tensor<ui32>\n    %37 = stablehlo.add %32, %36 : tensor<ui32>\n    %c_13 = stablehlo.constant dense<16> : tensor<ui32>\n    %38 = stablehlo.shift_left %36, %c_13 : tensor<ui32>\n    %c_14 = stablehlo.constant dense<16> : tensor<ui32>\n    %39 = stablehlo.shift_right_logical %36, %c_14 : tensor<ui32>\n    %40 = stablehlo.or %38, %39 : tensor<ui32>\n    %41 = stablehlo.xor %37, %40 : tensor<ui32>\n    %42 = stablehlo.add %37, %41 : tensor<ui32>\n    %c_15 = stablehlo.constant dense<24> : tensor<ui32>\n    %43 = stablehlo.shift_left %41, %c_15 : tensor<ui32>\n    %c_16 = stablehlo.constant dense<8> : tensor<ui32>\n    %44 = stablehlo.shift_right_logical %41, %c_16 : tensor<ui32>\n    %45 = stablehlo.or %43, %44 : tensor<ui32>\n    %46 = stablehlo.xor %42, %45 : tensor<ui32>\n    %47 = stablehlo.add %42, %1 : tensor<ui32>\n    %48 = stablehlo.add %46, %arg0 : tensor<ui32>\n    %c_17 = stablehlo.constant dense<2> : tensor<ui32>\n    %49 = stablehlo.add %48, %c_17 : tensor<ui32>\n    %50 = stablehlo.add %47, %49 : tensor<ui32>\n    %c_18 = stablehlo.constant dense<13> : tensor<ui32>\n    %51 = stablehlo.shift_left %49, %c_18 : tensor<ui32>\n    %c_19 = stablehlo.constant dense<19> : tensor<ui32>\n    %52 = stablehlo.shift_right_logical %49, %c_19 : tensor<ui32>\n    %53 = stablehlo.or %51, %52 : tensor<ui32>\n    %54 = stablehlo.xor %50, %53 : tensor<ui32>\n    %55 = stablehlo.add %50, %54 : tensor<ui32>\n    %c_20 = stablehlo.constant dense<15> : tensor<ui32>\n    %56 = stablehlo.shift_left %54, %c_20 : tensor<ui32>\n    %c_21 = stablehlo.constant dense<17> : tensor<ui32>\n    %57 = stablehlo.shift_right_logical %54, %c_21 : tensor<ui32>\n    %58 = stablehlo.or %56, %57 : tensor<ui32>\n    %59 = stablehlo.xor %55, %58 : tensor<ui32>\n    %60 = stablehlo.add %55, %59 : tensor<ui32>\n    %c_22 = stablehlo.constant dense<26> : tensor<ui32>\n    %61 = stablehlo.shift_left %59, %c_22 : tensor<ui32>\n    %c_23 = stablehlo.constant dense<6> : tensor<ui32>\n    %62 = stablehlo.shift_right_logical %59, %c_23 : tensor<ui32>\n    %63 = stablehlo.or %61, %62 : tensor<ui32>\n    %64 = stablehlo.xor %60, %63 : tensor<ui32>\n    %65 = stablehlo.add %60, %64 : tensor<ui32>\n    %c_24 = stablehlo.constant dense<6> : tensor<ui32>\n    %66 = stablehlo.shift_left %64, %c_24 : tensor<ui32>\n    %c_25 = stablehlo.constant dense<26> : tensor<ui32>\n    %67 = stablehlo.shift_right_logical %64, %c_25 : tensor<ui32>\n    %68 = stablehlo.or %66, %67 : tensor<ui32>\n    %69 = stablehlo.xor %65, %68 : tensor<ui32>\n    %70 = stablehlo.add %65, %arg0 : tensor<ui32>\n    %71 = stablehlo.add %69, %arg1 : tensor<ui32>\n    %c_26 = stablehlo.constant dense<3> : tensor<ui32>\n    %72 = stablehlo.add %71, %c_26 : tensor<ui32>\n    %73 = stablehlo.add %70, %72 : tensor<ui32>\n    %c_27 = stablehlo.constant dense<17> : tensor<ui32>\n    %74 = stablehlo.shift_left %72, %c_27 : tensor<ui32>\n    %c_28 = stablehlo.constant dense<15> : tensor<ui32>\n    %75 = stablehlo.shift_right_logical %72, %c_28 : tensor<ui32>\n    %76 = stablehlo.or %74, %75 : tensor<ui32>\n    %77 = stablehlo.xor %73, %76 : tensor<ui32>\n    %78 = stablehlo.add %73, %77 : tensor<ui32>\n    %c_29 = stablehlo.constant dense<29> : tensor<ui32>\n    %79 = stablehlo.shift_left %77, %c_29 : tensor<ui32>\n    %c_30 = stablehlo.constant dense<3> : tensor<ui32>\n    %80 = stablehlo.shift_right_logical %77, %c_30 : tensor<ui32>\n    %81 = stablehlo.or %79, %80 : tensor<ui32>\n    %82 = stablehlo.xor %78, %81 : tensor<ui32>\n    %83 = stablehlo.add %78, %82 : tensor<ui32>\n    %c_31 = stablehlo.constant dense<16> : tensor<ui32>\n    %84 = stablehlo.shift_left %82, %c_31 : tensor<ui32>\n    %c_32 = stablehlo.constant dense<16> : tensor<ui32>\n    %85 = stablehlo.shift_right_logical %82, %c_32 : tensor<ui32>\n    %86 = stablehlo.or %84, %85 : tensor<ui32>\n    %87 = stablehlo.xor %83, %86 : tensor<ui32>\n    %88 = stablehlo.add %83, %87 : tensor<ui32>\n    %c_33 = stablehlo.constant dense<24> : tensor<ui32>\n    %89 = stablehlo.shift_left %87, %c_33 : tensor<ui32>\n    %c_34 = stablehlo.constant dense<8> : tensor<ui32>\n    %90 = stablehlo.shift_right_logical %87, %c_34 : tensor<ui32>\n    %91 = stablehlo.or %89, %90 : tensor<ui32>\n    %92 = stablehlo.xor %88, %91 : tensor<ui32>\n    %93 = stablehlo.add %88, %arg1 : tensor<ui32>\n    %94 = stablehlo.add %92, %1 : tensor<ui32>\n    %c_35 = stablehlo.constant dense<4> : tensor<ui32>\n    %95 = stablehlo.add %94, %c_35 : tensor<ui32>\n    %96 = stablehlo.add %93, %95 : tensor<ui32>\n    %c_36 = stablehlo.constant dense<13> : tensor<ui32>\n    %97 = stablehlo.shift_left %95, %c_36 : tensor<ui32>\n    %c_37 = stablehlo.constant dense<19> : tensor<ui32>\n    %98 = stablehlo.shift_right_logical %95, %c_37 : tensor<ui32>\n    %99 = stablehlo.or %97, %98 : tensor<ui32>\n    %100 = stablehlo.xor %96, %99 : tensor<ui32>\n    %101 = stablehlo.add %96, %100 : tensor<ui32>\n    %c_38 = stablehlo.constant dense<15> : tensor<ui32>\n    %102 = stablehlo.shift_left %100, %c_38 : tensor<ui32>\n    %c_39 = stablehlo.constant dense<17> : tensor<ui32>\n    %103 = stablehlo.shift_right_logical %100, %c_39 : tensor<ui32>\n    %104 = stablehlo.or %102, %103 : tensor<ui32>\n    %105 = stablehlo.xor %101, %104 : tensor<ui32>\n    %106 = stablehlo.add %101, %105 : tensor<ui32>\n    %c_40 = stablehlo.constant dense<26> : tensor<ui32>\n    %107 = stablehlo.shift_left %105, %c_40 : tensor<ui32>\n    %c_41 = stablehlo.constant dense<6> : tensor<ui32>\n    %108 = stablehlo.shift_right_logical %105, %c_41 : tensor<ui32>\n    %109 = stablehlo.or %107, %108 : tensor<ui32>\n    %110 = stablehlo.xor %106, %109 : tensor<ui32>\n    %111 = stablehlo.add %106, %110 : tensor<ui32>\n    %c_42 = stablehlo.constant dense<6> : tensor<ui32>\n    %112 = stablehlo.shift_left %110, %c_42 : tensor<ui32>\n    %c_43 = stablehlo.constant dense<26> : tensor<ui32>\n    %113 = stablehlo.shift_right_logical %110, %c_43 : tensor<ui32>\n    %114 = stablehlo.or %112, %113 : tensor<ui32>\n    %115 = stablehlo.xor %111, %114 : tensor<ui32>\n    %116 = stablehlo.add %111, %1 : tensor<ui32>\n    %117 = stablehlo.add %115, %arg0 : tensor<ui32>\n    %c_44 = stablehlo.constant dense<5> : tensor<ui32>\n    %118 = stablehlo.add %117, %c_44 : tensor<ui32>\n    return %116, %118 : tensor<ui32>, tensor<ui32>\n  }\n  func.func private @searchsorted(%arg0: tensor<1000000xf32>, %arg1: tensor<1000000xf32>) -> tensor<1000000xi32> {\n    %0 = call @_searchsorted_scan_impl(%arg0, %arg1) : (tensor<1000000xf32>, tensor<1000000xf32>) -> tensor<1000000xi32>\n    return %0 : tensor<1000000xi32>\n  }\n  func.func private @_searchsorted_scan_impl(%arg0: tensor<1000000xf32>, %arg1: tensor<1000000xf32>) -> tensor<1000000xi32> {\n    %0 = call @_searchsorted_scan_impl_7(%arg0, %arg1) : (tensor<1000000xf32>, tensor<1000000xf32>) -> tensor<1000000xi32>\n    return %0 : tensor<1000000xi32>\n  }\n  func.func private @_searchsorted_scan_impl_7(%arg0: tensor<1000000xf32>, %arg1: tensor<1000000xf32>) -> tensor<1000000xi32> {\n    %c = stablehlo.constant dense<0> : tensor<ui32>\n    %0 = stablehlo.broadcast_in_dim %c, dims = [] : (tensor<ui32>) -> tensor<1000000xui32>\n    %c_0 = stablehlo.constant dense<1000000> : tensor<ui32>\n    %1 = stablehlo.broadcast_in_dim %c_0, dims = [] : (tensor<ui32>) -> tensor<1000000xui32>\n    %c_1 = stablehlo.constant dense<0> : tensor<i32>\n    %2:5 = stablehlo.while(%iterArg = %arg0, %iterArg_2 = %arg1, %iterArg_3 = %c_1, %iterArg_4 = %0, %iterArg_5 = %1) : tensor<1000000xf32>, tensor<1000000xf32>, tensor<i32>, tensor<1000000xui32>, tensor<1000000xui32>\n    cond {\n      %c_6 = stablehlo.constant dense<20> : tensor<i32>\n      %4 = stablehlo.compare LT, %iterArg_3, %c_6, SIGNED : (tensor<i32>, tensor<i32>) -> tensor<i1>\n      stablehlo.return %4 : tensor<i1>\n    } do {\n      %4:2 = func.call @closed_call_8(%iterArg, %iterArg_2, %iterArg_4, %iterArg_5) : (tensor<1000000xf32>, tensor<1000000xf32>, tensor<1000000xui32>, tensor<1000000xui32>) -> (tensor<1000000xui32>, tensor<1000000xui32>)\n      %c_6 = stablehlo.constant dense<1> : tensor<i32>\n      %5 = stablehlo.add %iterArg_3, %c_6 : tensor<i32>\n      stablehlo.return %iterArg, %iterArg_2, %5, %4#0, %4#1 : tensor<1000000xf32>, tensor<1000000xf32>, tensor<i32>, tensor<1000000xui32>, tensor<1000000xui32>\n    }\n    %3 = stablehlo.convert %2#4 : (tensor<1000000xui32>) -> tensor<1000000xi32>\n    return %3 : tensor<1000000xi32>\n  }\n  func.func private @closed_call_8(%arg0: tensor<1000000xf32>, %arg1: tensor<1000000xf32>, %arg2: tensor<1000000xui32>, %arg3: tensor<1000000xui32>) -> (tensor<1000000xui32>, tensor<1000000xui32>) {\n    %0 = stablehlo.subtract %arg3, %arg2 : tensor<1000000xui32>\n    %c = stablehlo.constant dense<2> : tensor<i32>\n    %1 = call @floor_divide(%0, %c) : (tensor<1000000xui32>, tensor<i32>) -> tensor<1000000xui32>\n    %2 = stablehlo.add %arg2, %1 : tensor<1000000xui32>\n    %3 = stablehlo.broadcast_in_dim %2, dims = [0] : (tensor<1000000xui32>) -> tensor<1000000x1xui32>\n    %4 = \"stablehlo.gather\"(%arg0, %3) <{dimension_numbers = #stablehlo.gather<offset_dims = [1], start_index_map = [0], index_vector_dim = 1>, indices_are_sorted = false, slice_sizes = array<i64: 1>}> : (tensor<1000000xf32>, tensor<1000000x1xui32>) -> tensor<1000000x1xf32>\n    %5 = stablehlo.reshape %4 : (tensor<1000000x1xf32>) -> tensor<1000000xf32>\n    %cst = stablehlo.constant dense<0.000000e+00> : tensor<f32>\n    %6 = stablehlo.broadcast_in_dim %cst, dims = [] : (tensor<f32>) -> tensor<1000000xf32>\n    %7 = stablehlo.compare EQ, %arg1, %6, FLOAT : (tensor<1000000xf32>, tensor<1000000xf32>) -> tensor<1000000xi1>\n    %cst_0 = stablehlo.constant dense<0.000000e+00> : tensor<f32>\n    %8 = stablehlo.broadcast_in_dim %cst_0, dims = [] : (tensor<f32>) -> tensor<1000000xf32>\n    %9 = stablehlo.select %7, %8, %arg1 : tensor<1000000xi1>, tensor<1000000xf32>\n    %10 = stablehlo.compare NE, %arg1, %arg1, FLOAT : (tensor<1000000xf32>, tensor<1000000xf32>) -> tensor<1000000xi1>\n    %cst_1 = stablehlo.constant dense<0x7FC00000> : tensor<f32>\n    %11 = stablehlo.broadcast_in_dim %cst_1, dims = [] : (tensor<f32>) -> tensor<1000000xf32>\n    %12 = stablehlo.select %10, %11, %9 : tensor<1000000xi1>, tensor<1000000xf32>\n    %cst_2 = stablehlo.constant dense<0.000000e+00> : tensor<f32>\n    %13 = stablehlo.broadcast_in_dim %cst_2, dims = [] : (tensor<f32>) -> tensor<1000000xf32>\n    %14 = stablehlo.compare EQ, %5, %13, FLOAT : (tensor<1000000xf32>, tensor<1000000xf32>) -> tensor<1000000xi1>\n    %cst_3 = stablehlo.constant dense<0.000000e+00> : tensor<f32>\n    %15 = stablehlo.broadcast_in_dim %cst_3, dims = [] : (tensor<f32>) -> tensor<1000000xf32>\n    %16 = stablehlo.select %14, %15, %5 : tensor<1000000xi1>, tensor<1000000xf32>\n    %17 = stablehlo.compare NE, %5, %5, FLOAT : (tensor<1000000xf32>, tensor<1000000xf32>) -> tensor<1000000xi1>\n    %cst_4 = stablehlo.constant dense<0x7FC00000> : tensor<f32>\n    %18 = stablehlo.broadcast_in_dim %cst_4, dims = [] : (tensor<f32>) -> tensor<1000000xf32>\n    %19 = stablehlo.select %17, %18, %16 : tensor<1000000xi1>, tensor<1000000xf32>\n    %20 = stablehlo.compare LT, %12, %19, TOTALORDER : (tensor<1000000xf32>, tensor<1000000xf32>) -> tensor<1000000xi1>\n    %21 = stablehlo.select %20, %arg2, %2 : tensor<1000000xi1>, tensor<1000000xui32>\n    %22 = stablehlo.select %20, %2, %arg3 : tensor<1000000xi1>, tensor<1000000xui32>\n    return %21, %22 : tensor<1000000xui32>, tensor<1000000xui32>\n  }\n  func.func private @floor_divide(%arg0: tensor<1000000xui32>, %arg1: tensor<i32>) -> tensor<1000000xui32> {\n    %0 = stablehlo.convert %arg1 : (tensor<i32>) -> tensor<ui32>\n    %1 = stablehlo.broadcast_in_dim %0, dims = [] : (tensor<ui32>) -> tensor<1000000xui32>\n    %2 = stablehlo.divide %arg0, %1 : tensor<1000000xui32>\n    return %2 : tensor<1000000xui32>\n  }\n  func.func private @clip(%arg0: tensor<1000000xi32>, %arg1: tensor<i32>, %arg2: tensor<i32>) -> tensor<1000000xi32> {\n    %0 = stablehlo.convert %arg1 : tensor<i32>\n    %1 = stablehlo.broadcast_in_dim %0, dims = [] : (tensor<i32>) -> tensor<1000000xi32>\n    %2 = stablehlo.maximum %1, %arg0 : tensor<1000000xi32>\n    %3 = stablehlo.convert %arg2 : tensor<i32>\n    %4 = stablehlo.broadcast_in_dim %3, dims = [] : (tensor<i32>) -> tensor<1000000xi32>\n    %5 = stablehlo.minimum %4, %2 : tensor<1000000xi32>\n    return %5 : tensor<1000000xi32>\n  }\n  func.func private @_take(%arg0: tensor<1000000x1xf32>, %arg1: tensor<1000000xi32>) -> tensor<1000000x1xf32> {\n    %c = stablehlo.constant dense<0> : tensor<i32>\n    %0 = stablehlo.broadcast_in_dim %c, dims = [] : (tensor<i32>) -> tensor<1000000xi32>\n    %1 = stablehlo.compare LT, %arg1, %0, SIGNED : (tensor<1000000xi32>, tensor<1000000xi32>) -> tensor<1000000xi1>\n    %c_0 = stablehlo.constant dense<1000000> : tensor<i32>\n    %2 = stablehlo.broadcast_in_dim %c_0, dims = [] : (tensor<i32>) -> tensor<1000000xi32>\n    %3 = stablehlo.add %arg1, %2 : tensor<1000000xi32>\n    %4 = call @_where(%1, %3, %arg1) : (tensor<1000000xi1>, tensor<1000000xi32>, tensor<1000000xi32>) -> tensor<1000000xi32>\n    %5 = stablehlo.broadcast_in_dim %4, dims = [0] : (tensor<1000000xi32>) -> tensor<1000000x1xi32>\n    %c_1 = stablehlo.constant dense<999999> : tensor<1xi32>\n    %c_2 = stablehlo.constant dense<0> : tensor<i32>\n    %6 = stablehlo.broadcast_in_dim %c_2, dims = [] : (tensor<i32>) -> tensor<1000000x1xi32>\n    %7 = stablehlo.compare GE, %5, %6, SIGNED : (tensor<1000000x1xi32>, tensor<1000000x1xi32>) -> tensor<1000000x1xi1>\n    %8 = stablehlo.broadcast_in_dim %c_1, dims = [1] : (tensor<1xi32>) -> tensor<1x1xi32>\n    %9 = stablehlo.broadcast_in_dim %8, dims = [0, 1] : (tensor<1x1xi32>) -> tensor<1000000x1xi32>\n    %10 = stablehlo.compare LE, %5, %9, SIGNED : (tensor<1000000x1xi32>, tensor<1000000x1xi32>) -> tensor<1000000x1xi1>\n    %11 = stablehlo.and %7, %10 : tensor<1000000x1xi1>\n    %c_3 = stablehlo.constant dense<true> : tensor<i1>\n    %12 = stablehlo.reduce(%11 init: %c_3) applies stablehlo.and across dimensions = [1] : (tensor<1000000x1xi1>, tensor<i1>) -> tensor<1000000xi1>\n    %13 = \"stablehlo.gather\"(%arg0, %5) <{dimension_numbers = #stablehlo.gather<offset_dims = [1], collapsed_slice_dims = [0], start_index_map = [0], index_vector_dim = 1>, indices_are_sorted = false, slice_sizes = array<i64: 1, 1>}> : (tensor<1000000x1xf32>, tensor<1000000x1xi32>) -> tensor<1000000x1xf32>\n    %14 = stablehlo.broadcast_in_dim %12, dims = [0] : (tensor<1000000xi1>) -> tensor<1000000x1xi1>\n    %cst = stablehlo.constant dense<0x7FC00000> : tensor<f32>\n    %15 = stablehlo.broadcast_in_dim %cst, dims = [] : (tensor<f32>) -> tensor<1000000x1xf32>\n    %16 = stablehlo.select %14, %13, %15 : tensor<1000000x1xi1>, tensor<1000000x1xf32>\n    return %16 : tensor<1000000x1xf32>\n  }\n  func.func private @_where(%arg0: tensor<1000000xi1>, %arg1: tensor<1000000xi32>, %arg2: tensor<1000000xi32>) -> tensor<1000000xi32> {\n    %0 = stablehlo.select %arg0, %arg1, %arg2 : tensor<1000000xi1>, tensor<1000000xi32>\n    return %0 : tensor<1000000xi32>\n  }\n  func.func private @_where_9(%arg0: tensor<i1>, %arg1: tensor<1000000xf32>, %arg2: tensor<1000000xf32>) -> tensor<1000000xf32> {\n    %0 = stablehlo.select %arg0, %arg1, %arg2 : tensor<i1>, tensor<1000000xf32>\n    return %0 : tensor<1000000xf32>\n  }\n  func.func private @_where_10(%arg0: tensor<i1>, %arg1: tensor<f32>, %arg2: tensor<f32>) -> tensor<f32> {\n    %0 = stablehlo.select %arg0, %arg1, %arg2 : tensor<i1>, tensor<f32>\n    return %0 : tensor<f32>\n  }\n  func.func private @dynamic_update_index_in_dim(%arg0: tensor<99x1000000x1xf32>, %arg1: tensor<1000000x1xf32>, %arg2: tensor<i32>) -> tensor<99x1000000x1xf32> {\n    %0 = stablehlo.broadcast_in_dim %arg1, dims = [1, 2] : (tensor<1000000x1xf32>) -> tensor<1x1000000x1xf32>\n    %c = stablehlo.constant dense<0> : tensor<i32>\n    %c_0 = stablehlo.constant dense<0> : tensor<i32>\n    %1 = stablehlo.dynamic_update_slice %arg0, %0, %arg2, %c, %c_0 : (tensor<99x1000000x1xf32>, tensor<1x1000000x1xf32>, tensor<i32>, tensor<i32>, tensor<i32>) -> tensor<99x1000000x1xf32>\n    return %1 : tensor<99x1000000x1xf32>\n  }\n  func.func private @dynamic_update_index_in_dim_11(%arg0: tensor<99x1000000xf32>, %arg1: tensor<1000000xf32>, %arg2: tensor<i32>) -> tensor<99x1000000xf32> {\n    %0 = stablehlo.broadcast_in_dim %arg1, dims = [1] : (tensor<1000000xf32>) -> tensor<1x1000000xf32>\n    %c = stablehlo.constant dense<0> : tensor<i32>\n    %1 = stablehlo.dynamic_update_slice %arg0, %0, %arg2, %c : (tensor<99x1000000xf32>, tensor<1x1000000xf32>, tensor<i32>, tensor<i32>) -> tensor<99x1000000xf32>\n    return %1 : tensor<99x1000000xf32>\n  }\n  func.func private @dynamic_update_index_in_dim_12(%arg0: tensor<99x1000000xi32>, %arg1: tensor<1000000xi32>, %arg2: tensor<i32>) -> tensor<99x1000000xi32> {\n    %0 = stablehlo.broadcast_in_dim %arg1, dims = [1] : (tensor<1000000xi32>) -> tensor<1x1000000xi32>\n    %c = stablehlo.constant dense<0> : tensor<i32>\n    %1 = stablehlo.dynamic_update_slice %arg0, %0, %arg2, %c : (tensor<99x1000000xi32>, tensor<1x1000000xi32>, tensor<i32>, tensor<i32>) -> tensor<99x1000000xi32>\n    return %1 : tensor<99x1000000xi32>\n  }\n  func.func private @dynamic_update_index_in_dim_13(%arg0: tensor<99xf32>, %arg1: tensor<f32>, %arg2: tensor<i32>) -> tensor<99xf32> {\n    %0 = stablehlo.broadcast_in_dim %arg1, dims = [] : (tensor<f32>) -> tensor<1xf32>\n    %1 = stablehlo.dynamic_update_slice %arg0, %0, %arg2 : (tensor<99xf32>, tensor<1xf32>, tensor<i32>) -> tensor<99xf32>\n    return %1 : tensor<99xf32>\n  }\n}\n",
  "stablehlo_op_counts": {
    "func.call": 14,
    "stablehlo.add": 165,
    "stablehlo.and": 1,
    "stablehlo.bitcast_convert": 2,
    "stablehlo.broadcast_in_dim": 248,
    "stablehlo.case": 1,
    "stablehlo.compare": 11,
    "stablehlo.concatenate": 7,
    "stablehlo.constant": 266,
    "stablehlo.convert": 14,
    "stablehlo.custom_call": 2,
    "stablehlo.divide": 8,
    "stablehlo.dynamic_slice": 2,
    "stablehlo.dynamic_update_slice": 4,
    "stablehlo.exponential": 6,
    "stablehlo.gather": 2,
    "stablehlo.iota": 6,
    "stablehlo.log": 2,
    "stablehlo.maximum": 3,
    "stablehlo.minimum": 1,
    "stablehlo.multiply": 17,
    "stablehlo.or": 82,
    "stablehlo.reduce": 8,
    "stablehlo.reduce_window": 1,
    "stablehlo.reshape": 20,
    "stablehlo.select": 10,
    "stablehlo.shift_left": 80,
    "stablehlo.shift_right_logical": 85,
    "stablehlo.slice": 15,
    "stablehlo.subtract": 14,
    "stablehlo.while": 2,
    "stablehlo.xor": 90
  },
  "versions": {
    "jax": "0.10.2",
    "jax-mps": "0.10.9",
    "jaxlib": "0.10.2",
    "python": "3.13.9"
  },
  "workload": "lgssm_pf"
}
