{
  "arm": "jax_mps_sync",
  "backend": "mps",
  "compiled_ir": null,
  "compiled_ir_error": "backend exposes no compiled-executable text",
  "dispatch_mode": "safe",
  "failure": null,
  "kind": "ir_capture",
  "parameters": {
    "size": 10000
  },
  "provenance": {
    "jax_mps_dylib": {
      "bytes": 32384360,
      "path": "/Users/michaelellis/.cache/uv/archive-v0/8aCbjkrM__ZT_tG2KtcKv/lib/python3.13/site-packages/jax_plugins/mps/lib/libpjrt_plugin_mps.dylib",
      "sha256": "d5845ce1184e6b26f838af9f97b5fc94997b77cd7f4fdafc4f351d963bc2055a"
    },
    "mlx_metallib": {
      "bytes": 125453832,
      "path": "/Users/michaelellis/.cache/uv/archive-v0/8aCbjkrM__ZT_tG2KtcKv/lib/python3.13/site-packages/jax_plugins/mps/lib/mlx.metallib",
      "sha256": "b9fe88797d1fdded94c7e6a1aed138acd1fb6a257f14483c2d378d2dfecaf7a8"
    },
    "sysinfo": {
      "Backend": "mps",
      "Chip": "Apple M3 Pro",
      "Memory": "36 GB",
      "Python": "3.13.9",
      "jax": "0.10.2",
      "jax-mps": "0.10.9",
      "jaxlib": "0.10.2",
      "macOS": "26.2 (25C56)"
    },
    "versions": {
      "jax-mps": "0.10.9",
      "jaxlib": "0.10.2",
      "python": "3.13.9"
    }
  },
  "schema_version": 1,
  "stablehlo": "module @jit_operation attributes {mhlo.num_partitions = 1 : i32, mhlo.num_replicas = 1 : i32} {\n  func.func public @main(%arg0: tensor<2xui32>) -> (tensor<2xf32> {jax.result_info = \"result\"}) {\n    %0 = stablehlo.custom_call @Sharding(%arg0) {backend_config = \"\", mhlo.sharding = \"{replicated}\"} : (tensor<2xui32>) -> tensor<2xui32>\n    %1 = call @_normal(%0) : (tensor<2xui32>) -> tensor<10000xf32>\n    %cst = stablehlo.constant dense<0.000000e+00> : tensor<f32>\n    %2 = stablehlo.reduce(%1 init: %cst) applies stablehlo.add across dimensions = [0] : (tensor<10000xf32>, tensor<f32>) -> tensor<f32>\n    %cst_0 = stablehlo.constant dense<1.000000e+04> : tensor<f32>\n    %3 = stablehlo.divide %2, %cst_0 : tensor<f32>\n    %c = stablehlo.constant dense<0> : tensor<i32>\n    %4 = call @_var(%1, %c) : (tensor<10000xf32>, tensor<i32>) -> tensor<f32>\n    %5 = stablehlo.broadcast_in_dim %3, dims = [] : (tensor<f32>) -> tensor<1xf32>\n    %6 = stablehlo.broadcast_in_dim %4, dims = [] : (tensor<f32>) -> tensor<1xf32>\n    %7 = stablehlo.concatenate %5, %6, dim = 0 : (tensor<1xf32>, tensor<1xf32>) -> tensor<2xf32>\n    return %7 : tensor<2xf32>\n  }\n  func.func private @_normal(%arg0: tensor<2xui32>) -> tensor<10000xf32> {\n    %0 = call @_normal_real(%arg0) : (tensor<2xui32>) -> tensor<10000xf32>\n    return %0 : tensor<10000xf32>\n  }\n  func.func private @_normal_real(%arg0: tensor<2xui32>) -> tensor<10000xf32> {\n    %cst = stablehlo.constant dense<-0.99999994> : tensor<f32>\n    %cst_0 = stablehlo.constant dense<1.000000e+00> : tensor<f32>\n    %0 = call @_uniform(%arg0, %cst, %cst_0) : (tensor<2xui32>, tensor<f32>, tensor<f32>) -> tensor<10000xf32>\n    %1 = stablehlo.custom_call @mhlo.erf_inv(%0) {api_version = 2 : i32, backend_config = \"\"} : (tensor<10000xf32>) -> tensor<10000xf32>\n    %cst_1 = stablehlo.constant dense<1.41421354> : tensor<f32>\n    %2 = stablehlo.broadcast_in_dim %cst_1, dims = [] : (tensor<f32>) -> tensor<10000xf32>\n    %3 = stablehlo.multiply %2, %1 : tensor<10000xf32>\n    return %3 : tensor<10000xf32>\n  }\n  func.func private @_uniform(%arg0: tensor<2xui32>, %arg1: tensor<f32>, %arg2: tensor<f32>) -> tensor<10000xf32> {\n    %0 = stablehlo.broadcast_in_dim %arg1, dims = [] : (tensor<f32>) -> tensor<1xf32>\n    %1 = stablehlo.broadcast_in_dim %arg2, dims = [] : (tensor<f32>) -> tensor<1xf32>\n    %2 = stablehlo.slice %arg0 [0:1] : (tensor<2xui32>) -> tensor<1xui32>\n    %3 = stablehlo.reshape %2 : (tensor<1xui32>) -> tensor<ui32>\n    %4 = stablehlo.slice %arg0 [1:2] : (tensor<2xui32>) -> tensor<1xui32>\n    %5 = stablehlo.reshape %4 : (tensor<1xui32>) -> tensor<ui32>\n    %6 = stablehlo.iota dim = 0 : tensor<10000xui64>\n    %c = stablehlo.constant dense<1> : tensor<ui64>\n    %7 = stablehlo.broadcast_in_dim %c, dims = [] : (tensor<ui64>) -> tensor<10000xui64>\n    %8 = stablehlo.multiply %7, %6 : tensor<10000xui64>\n    %c_0 = stablehlo.constant dense<32> : tensor<ui64>\n    %9 = stablehlo.broadcast_in_dim %c_0, dims = [] : (tensor<ui64>) -> tensor<10000xui64>\n    %10 = stablehlo.shift_right_logical %8, %9 : tensor<10000xui64>\n    %11 = stablehlo.convert %8 : (tensor<10000xui64>) -> tensor<10000xui32>\n    %12 = stablehlo.convert %10 : (tensor<10000xui64>) -> tensor<10000xui32>\n    %13:2 = call @threefry2x32(%3, %5, %12, %11) : (tensor<ui32>, tensor<ui32>, tensor<10000xui32>, tensor<10000xui32>) -> (tensor<10000xui32>, tensor<10000xui32>)\n    %14 = stablehlo.xor %13#0, %13#1 : tensor<10000xui32>\n    %c_1 = stablehlo.constant dense<9> : tensor<ui32>\n    %15 = stablehlo.broadcast_in_dim %c_1, dims = [] : (tensor<ui32>) -> tensor<10000xui32>\n    %16 = stablehlo.shift_right_logical %14, %15 : tensor<10000xui32>\n    %c_2 = stablehlo.constant dense<1065353216> : tensor<ui32>\n    %17 = stablehlo.broadcast_in_dim %c_2, dims = [] : (tensor<ui32>) -> tensor<10000xui32>\n    %18 = stablehlo.or %16, %17 : tensor<10000xui32>\n    %19 = stablehlo.bitcast_convert %18 : (tensor<10000xui32>) -> tensor<10000xf32>\n    %cst = stablehlo.constant dense<1.000000e+00> : tensor<f32>\n    %20 = stablehlo.broadcast_in_dim %cst, dims = [] : (tensor<f32>) -> tensor<10000xf32>\n    %21 = stablehlo.subtract %19, %20 : tensor<10000xf32>\n    %22 = stablehlo.subtract %1, %0 : tensor<1xf32>\n    %23 = stablehlo.broadcast_in_dim %22, dims = [0] : (tensor<1xf32>) -> tensor<10000xf32>\n    %24 = stablehlo.multiply %21, %23 : tensor<10000xf32>\n    %25 = stablehlo.broadcast_in_dim %0, dims = [0] : (tensor<1xf32>) -> tensor<10000xf32>\n    %26 = stablehlo.add %24, %25 : tensor<10000xf32>\n    %27 = stablehlo.broadcast_in_dim %0, dims = [0] : (tensor<1xf32>) -> tensor<10000xf32>\n    %28 = stablehlo.maximum %27, %26 : tensor<10000xf32>\n    return %28 : tensor<10000xf32>\n  }\n  func.func private @threefry2x32(%arg0: tensor<ui32>, %arg1: tensor<ui32>, %arg2: tensor<10000xui32>, %arg3: tensor<10000xui32>) -> (tensor<10000xui32>, tensor<10000xui32>) {\n    %0 = stablehlo.xor %arg0, %arg1 : tensor<ui32>\n    %c = stablehlo.constant dense<466688986> : tensor<ui32>\n    %1 = stablehlo.xor %0, %c : tensor<ui32>\n    %2 = stablehlo.broadcast_in_dim %arg0, dims = [] : (tensor<ui32>) -> tensor<10000xui32>\n    %3 = stablehlo.add %arg2, %2 : tensor<10000xui32>\n    %4 = stablehlo.broadcast_in_dim %arg1, dims = [] : (tensor<ui32>) -> tensor<10000xui32>\n    %5 = stablehlo.add %arg3, %4 : tensor<10000xui32>\n    %6 = stablehlo.add %3, %5 : tensor<10000xui32>\n    %c_0 = stablehlo.constant dense<13> : tensor<ui32>\n    %7 = stablehlo.broadcast_in_dim %c_0, dims = [] : (tensor<ui32>) -> tensor<10000xui32>\n    %8 = stablehlo.shift_left %5, %7 : tensor<10000xui32>\n    %c_1 = stablehlo.constant dense<19> : tensor<ui32>\n    %9 = stablehlo.broadcast_in_dim %c_1, dims = [] : (tensor<ui32>) -> tensor<10000xui32>\n    %10 = stablehlo.shift_right_logical %5, %9 : tensor<10000xui32>\n    %11 = stablehlo.or %8, %10 : tensor<10000xui32>\n    %12 = stablehlo.xor %6, %11 : tensor<10000xui32>\n    %13 = stablehlo.add %6, %12 : tensor<10000xui32>\n    %c_2 = stablehlo.constant dense<15> : tensor<ui32>\n    %14 = stablehlo.broadcast_in_dim %c_2, dims = [] : (tensor<ui32>) -> tensor<10000xui32>\n    %15 = stablehlo.shift_left %12, %14 : tensor<10000xui32>\n    %c_3 = stablehlo.constant dense<17> : tensor<ui32>\n    %16 = stablehlo.broadcast_in_dim %c_3, dims = [] : (tensor<ui32>) -> tensor<10000xui32>\n    %17 = stablehlo.shift_right_logical %12, %16 : tensor<10000xui32>\n    %18 = stablehlo.or %15, %17 : tensor<10000xui32>\n    %19 = stablehlo.xor %13, %18 : tensor<10000xui32>\n    %20 = stablehlo.add %13, %19 : tensor<10000xui32>\n    %c_4 = stablehlo.constant dense<26> : tensor<ui32>\n    %21 = stablehlo.broadcast_in_dim %c_4, dims = [] : (tensor<ui32>) -> tensor<10000xui32>\n    %22 = stablehlo.shift_left %19, %21 : tensor<10000xui32>\n    %c_5 = stablehlo.constant dense<6> : tensor<ui32>\n    %23 = stablehlo.broadcast_in_dim %c_5, dims = [] : (tensor<ui32>) -> tensor<10000xui32>\n    %24 = stablehlo.shift_right_logical %19, %23 : tensor<10000xui32>\n    %25 = stablehlo.or %22, %24 : tensor<10000xui32>\n    %26 = stablehlo.xor %20, %25 : tensor<10000xui32>\n    %27 = stablehlo.add %20, %26 : tensor<10000xui32>\n    %c_6 = stablehlo.constant dense<6> : tensor<ui32>\n    %28 = stablehlo.broadcast_in_dim %c_6, dims = [] : (tensor<ui32>) -> tensor<10000xui32>\n    %29 = stablehlo.shift_left %26, %28 : tensor<10000xui32>\n    %c_7 = stablehlo.constant dense<26> : tensor<ui32>\n    %30 = stablehlo.broadcast_in_dim %c_7, dims = [] : (tensor<ui32>) -> tensor<10000xui32>\n    %31 = stablehlo.shift_right_logical %26, %30 : tensor<10000xui32>\n    %32 = stablehlo.or %29, %31 : tensor<10000xui32>\n    %33 = stablehlo.xor %27, %32 : tensor<10000xui32>\n    %34 = stablehlo.broadcast_in_dim %arg1, dims = [] : (tensor<ui32>) -> tensor<10000xui32>\n    %35 = stablehlo.add %27, %34 : tensor<10000xui32>\n    %36 = stablehlo.broadcast_in_dim %1, dims = [] : (tensor<ui32>) -> tensor<10000xui32>\n    %37 = stablehlo.add %33, %36 : tensor<10000xui32>\n    %c_8 = stablehlo.constant dense<1> : tensor<ui32>\n    %38 = stablehlo.broadcast_in_dim %c_8, dims = [] : (tensor<ui32>) -> tensor<10000xui32>\n    %39 = stablehlo.add %37, %38 : tensor<10000xui32>\n    %40 = stablehlo.add %35, %39 : tensor<10000xui32>\n    %c_9 = stablehlo.constant dense<17> : tensor<ui32>\n    %41 = stablehlo.broadcast_in_dim %c_9, dims = [] : (tensor<ui32>) -> tensor<10000xui32>\n    %42 = stablehlo.shift_left %39, %41 : tensor<10000xui32>\n    %c_10 = stablehlo.constant dense<15> : tensor<ui32>\n    %43 = stablehlo.broadcast_in_dim %c_10, dims = [] : (tensor<ui32>) -> tensor<10000xui32>\n    %44 = stablehlo.shift_right_logical %39, %43 : tensor<10000xui32>\n    %45 = stablehlo.or %42, %44 : tensor<10000xui32>\n    %46 = stablehlo.xor %40, %45 : tensor<10000xui32>\n    %47 = stablehlo.add %40, %46 : tensor<10000xui32>\n    %c_11 = stablehlo.constant dense<29> : tensor<ui32>\n    %48 = stablehlo.broadcast_in_dim %c_11, dims = [] : (tensor<ui32>) -> tensor<10000xui32>\n    %49 = stablehlo.shift_left %46, %48 : tensor<10000xui32>\n    %c_12 = stablehlo.constant dense<3> : tensor<ui32>\n    %50 = stablehlo.broadcast_in_dim %c_12, dims = [] : (tensor<ui32>) -> tensor<10000xui32>\n    %51 = stablehlo.shift_right_logical %46, %50 : tensor<10000xui32>\n    %52 = stablehlo.or %49, %51 : tensor<10000xui32>\n    %53 = stablehlo.xor %47, %52 : tensor<10000xui32>\n    %54 = stablehlo.add %47, %53 : tensor<10000xui32>\n    %c_13 = stablehlo.constant dense<16> : tensor<ui32>\n    %55 = stablehlo.broadcast_in_dim %c_13, dims = [] : (tensor<ui32>) -> tensor<10000xui32>\n    %56 = stablehlo.shift_left %53, %55 : tensor<10000xui32>\n    %c_14 = stablehlo.constant dense<16> : tensor<ui32>\n    %57 = stablehlo.broadcast_in_dim %c_14, dims = [] : (tensor<ui32>) -> tensor<10000xui32>\n    %58 = stablehlo.shift_right_logical %53, %57 : tensor<10000xui32>\n    %59 = stablehlo.or %56, %58 : tensor<10000xui32>\n    %60 = stablehlo.xor %54, %59 : tensor<10000xui32>\n    %61 = stablehlo.add %54, %60 : tensor<10000xui32>\n    %c_15 = stablehlo.constant dense<24> : tensor<ui32>\n    %62 = stablehlo.broadcast_in_dim %c_15, dims = [] : (tensor<ui32>) -> tensor<10000xui32>\n    %63 = stablehlo.shift_left %60, %62 : tensor<10000xui32>\n    %c_16 = stablehlo.constant dense<8> : tensor<ui32>\n    %64 = stablehlo.broadcast_in_dim %c_16, dims = [] : (tensor<ui32>) -> tensor<10000xui32>\n    %65 = stablehlo.shift_right_logical %60, %64 : tensor<10000xui32>\n    %66 = stablehlo.or %63, %65 : tensor<10000xui32>\n    %67 = stablehlo.xor %61, %66 : tensor<10000xui32>\n    %68 = stablehlo.broadcast_in_dim %1, dims = [] : (tensor<ui32>) -> tensor<10000xui32>\n    %69 = stablehlo.add %61, %68 : tensor<10000xui32>\n    %70 = stablehlo.broadcast_in_dim %arg0, dims = [] : (tensor<ui32>) -> tensor<10000xui32>\n    %71 = stablehlo.add %67, %70 : tensor<10000xui32>\n    %c_17 = stablehlo.constant dense<2> : tensor<ui32>\n    %72 = stablehlo.broadcast_in_dim %c_17, dims = [] : (tensor<ui32>) -> tensor<10000xui32>\n    %73 = stablehlo.add %71, %72 : tensor<10000xui32>\n    %74 = stablehlo.add %69, %73 : tensor<10000xui32>\n    %c_18 = stablehlo.constant dense<13> : tensor<ui32>\n    %75 = stablehlo.broadcast_in_dim %c_18, dims = [] : (tensor<ui32>) -> tensor<10000xui32>\n    %76 = stablehlo.shift_left %73, %75 : tensor<10000xui32>\n    %c_19 = stablehlo.constant dense<19> : tensor<ui32>\n    %77 = stablehlo.broadcast_in_dim %c_19, dims = [] : (tensor<ui32>) -> tensor<10000xui32>\n    %78 = stablehlo.shift_right_logical %73, %77 : tensor<10000xui32>\n    %79 = stablehlo.or %76, %78 : tensor<10000xui32>\n    %80 = stablehlo.xor %74, %79 : tensor<10000xui32>\n    %81 = stablehlo.add %74, %80 : tensor<10000xui32>\n    %c_20 = stablehlo.constant dense<15> : tensor<ui32>\n    %82 = stablehlo.broadcast_in_dim %c_20, dims = [] : (tensor<ui32>) -> tensor<10000xui32>\n    %83 = stablehlo.shift_left %80, %82 : tensor<10000xui32>\n    %c_21 = stablehlo.constant dense<17> : tensor<ui32>\n    %84 = stablehlo.broadcast_in_dim %c_21, dims = [] : (tensor<ui32>) -> tensor<10000xui32>\n    %85 = stablehlo.shift_right_logical %80, %84 : tensor<10000xui32>\n    %86 = stablehlo.or %83, %85 : tensor<10000xui32>\n    %87 = stablehlo.xor %81, %86 : tensor<10000xui32>\n    %88 = stablehlo.add %81, %87 : tensor<10000xui32>\n    %c_22 = stablehlo.constant dense<26> : tensor<ui32>\n    %89 = stablehlo.broadcast_in_dim %c_22, dims = [] : (tensor<ui32>) -> tensor<10000xui32>\n    %90 = stablehlo.shift_left %87, %89 : tensor<10000xui32>\n    %c_23 = stablehlo.constant dense<6> : tensor<ui32>\n    %91 = stablehlo.broadcast_in_dim %c_23, dims = [] : (tensor<ui32>) -> tensor<10000xui32>\n    %92 = stablehlo.shift_right_logical %87, %91 : tensor<10000xui32>\n    %93 = stablehlo.or %90, %92 : tensor<10000xui32>\n    %94 = stablehlo.xor %88, %93 : tensor<10000xui32>\n    %95 = stablehlo.add %88, %94 : tensor<10000xui32>\n    %c_24 = stablehlo.constant dense<6> : tensor<ui32>\n    %96 = stablehlo.broadcast_in_dim %c_24, dims = [] : (tensor<ui32>) -> tensor<10000xui32>\n    %97 = stablehlo.shift_left %94, %96 : tensor<10000xui32>\n    %c_25 = stablehlo.constant dense<26> : tensor<ui32>\n    %98 = stablehlo.broadcast_in_dim %c_25, dims = [] : (tensor<ui32>) -> tensor<10000xui32>\n    %99 = stablehlo.shift_right_logical %94, %98 : tensor<10000xui32>\n    %100 = stablehlo.or %97, %99 : tensor<10000xui32>\n    %101 = stablehlo.xor %95, %100 : tensor<10000xui32>\n    %102 = stablehlo.broadcast_in_dim %arg0, dims = [] : (tensor<ui32>) -> tensor<10000xui32>\n    %103 = stablehlo.add %95, %102 : tensor<10000xui32>\n    %104 = stablehlo.broadcast_in_dim %arg1, dims = [] : (tensor<ui32>) -> tensor<10000xui32>\n    %105 = stablehlo.add %101, %104 : tensor<10000xui32>\n    %c_26 = stablehlo.constant dense<3> : tensor<ui32>\n    %106 = stablehlo.broadcast_in_dim %c_26, dims = [] : (tensor<ui32>) -> tensor<10000xui32>\n    %107 = stablehlo.add %105, %106 : tensor<10000xui32>\n    %108 = stablehlo.add %103, %107 : tensor<10000xui32>\n    %c_27 = stablehlo.constant dense<17> : tensor<ui32>\n    %109 = stablehlo.broadcast_in_dim %c_27, dims = [] : (tensor<ui32>) -> tensor<10000xui32>\n    %110 = stablehlo.shift_left %107, %109 : tensor<10000xui32>\n    %c_28 = stablehlo.constant dense<15> : tensor<ui32>\n    %111 = stablehlo.broadcast_in_dim %c_28, dims = [] : (tensor<ui32>) -> tensor<10000xui32>\n    %112 = stablehlo.shift_right_logical %107, %111 : tensor<10000xui32>\n    %113 = stablehlo.or %110, %112 : tensor<10000xui32>\n    %114 = stablehlo.xor %108, %113 : tensor<10000xui32>\n    %115 = stablehlo.add %108, %114 : tensor<10000xui32>\n    %c_29 = stablehlo.constant dense<29> : tensor<ui32>\n    %116 = stablehlo.broadcast_in_dim %c_29, dims = [] : (tensor<ui32>) -> tensor<10000xui32>\n    %117 = stablehlo.shift_left %114, %116 : tensor<10000xui32>\n    %c_30 = stablehlo.constant dense<3> : tensor<ui32>\n    %118 = stablehlo.broadcast_in_dim %c_30, dims = [] : (tensor<ui32>) -> tensor<10000xui32>\n    %119 = stablehlo.shift_right_logical %114, %118 : tensor<10000xui32>\n    %120 = stablehlo.or %117, %119 : tensor<10000xui32>\n    %121 = stablehlo.xor %115, %120 : tensor<10000xui32>\n    %122 = stablehlo.add %115, %121 : tensor<10000xui32>\n    %c_31 = stablehlo.constant dense<16> : tensor<ui32>\n    %123 = stablehlo.broadcast_in_dim %c_31, dims = [] : (tensor<ui32>) -> tensor<10000xui32>\n    %124 = stablehlo.shift_left %121, %123 : tensor<10000xui32>\n    %c_32 = stablehlo.constant dense<16> : tensor<ui32>\n    %125 = stablehlo.broadcast_in_dim %c_32, dims = [] : (tensor<ui32>) -> tensor<10000xui32>\n    %126 = stablehlo.shift_right_logical %121, %125 : tensor<10000xui32>\n    %127 = stablehlo.or %124, %126 : tensor<10000xui32>\n    %128 = stablehlo.xor %122, %127 : tensor<10000xui32>\n    %129 = stablehlo.add %122, %128 : tensor<10000xui32>\n    %c_33 = stablehlo.constant dense<24> : tensor<ui32>\n    %130 = stablehlo.broadcast_in_dim %c_33, dims = [] : (tensor<ui32>) -> tensor<10000xui32>\n    %131 = stablehlo.shift_left %128, %130 : tensor<10000xui32>\n    %c_34 = stablehlo.constant dense<8> : tensor<ui32>\n    %132 = stablehlo.broadcast_in_dim %c_34, dims = [] : (tensor<ui32>) -> tensor<10000xui32>\n    %133 = stablehlo.shift_right_logical %128, %132 : tensor<10000xui32>\n    %134 = stablehlo.or %131, %133 : tensor<10000xui32>\n    %135 = stablehlo.xor %129, %134 : tensor<10000xui32>\n    %136 = stablehlo.broadcast_in_dim %arg1, dims = [] : (tensor<ui32>) -> tensor<10000xui32>\n    %137 = stablehlo.add %129, %136 : tensor<10000xui32>\n    %138 = stablehlo.broadcast_in_dim %1, dims = [] : (tensor<ui32>) -> tensor<10000xui32>\n    %139 = stablehlo.add %135, %138 : tensor<10000xui32>\n    %c_35 = stablehlo.constant dense<4> : tensor<ui32>\n    %140 = stablehlo.broadcast_in_dim %c_35, dims = [] : (tensor<ui32>) -> tensor<10000xui32>\n    %141 = stablehlo.add %139, %140 : tensor<10000xui32>\n    %142 = stablehlo.add %137, %141 : tensor<10000xui32>\n    %c_36 = stablehlo.constant dense<13> : tensor<ui32>\n    %143 = stablehlo.broadcast_in_dim %c_36, dims = [] : (tensor<ui32>) -> tensor<10000xui32>\n    %144 = stablehlo.shift_left %141, %143 : tensor<10000xui32>\n    %c_37 = stablehlo.constant dense<19> : tensor<ui32>\n    %145 = stablehlo.broadcast_in_dim %c_37, dims = [] : (tensor<ui32>) -> tensor<10000xui32>\n    %146 = stablehlo.shift_right_logical %141, %145 : tensor<10000xui32>\n    %147 = stablehlo.or %144, %146 : tensor<10000xui32>\n    %148 = stablehlo.xor %142, %147 : tensor<10000xui32>\n    %149 = stablehlo.add %142, %148 : tensor<10000xui32>\n    %c_38 = stablehlo.constant dense<15> : tensor<ui32>\n    %150 = stablehlo.broadcast_in_dim %c_38, dims = [] : (tensor<ui32>) -> tensor<10000xui32>\n    %151 = stablehlo.shift_left %148, %150 : tensor<10000xui32>\n    %c_39 = stablehlo.constant dense<17> : tensor<ui32>\n    %152 = stablehlo.broadcast_in_dim %c_39, dims = [] : (tensor<ui32>) -> tensor<10000xui32>\n    %153 = stablehlo.shift_right_logical %148, %152 : tensor<10000xui32>\n    %154 = stablehlo.or %151, %153 : tensor<10000xui32>\n    %155 = stablehlo.xor %149, %154 : tensor<10000xui32>\n    %156 = stablehlo.add %149, %155 : tensor<10000xui32>\n    %c_40 = stablehlo.constant dense<26> : tensor<ui32>\n    %157 = stablehlo.broadcast_in_dim %c_40, dims = [] : (tensor<ui32>) -> tensor<10000xui32>\n    %158 = stablehlo.shift_left %155, %157 : tensor<10000xui32>\n    %c_41 = stablehlo.constant dense<6> : tensor<ui32>\n    %159 = stablehlo.broadcast_in_dim %c_41, dims = [] : (tensor<ui32>) -> tensor<10000xui32>\n    %160 = stablehlo.shift_right_logical %155, %159 : tensor<10000xui32>\n    %161 = stablehlo.or %158, %160 : tensor<10000xui32>\n    %162 = stablehlo.xor %156, %161 : tensor<10000xui32>\n    %163 = stablehlo.add %156, %162 : tensor<10000xui32>\n    %c_42 = stablehlo.constant dense<6> : tensor<ui32>\n    %164 = stablehlo.broadcast_in_dim %c_42, dims = [] : (tensor<ui32>) -> tensor<10000xui32>\n    %165 = stablehlo.shift_left %162, %164 : tensor<10000xui32>\n    %c_43 = stablehlo.constant dense<26> : tensor<ui32>\n    %166 = stablehlo.broadcast_in_dim %c_43, dims = [] : (tensor<ui32>) -> tensor<10000xui32>\n    %167 = stablehlo.shift_right_logical %162, %166 : tensor<10000xui32>\n    %168 = stablehlo.or %165, %167 : tensor<10000xui32>\n    %169 = stablehlo.xor %163, %168 : tensor<10000xui32>\n    %170 = stablehlo.broadcast_in_dim %1, dims = [] : (tensor<ui32>) -> tensor<10000xui32>\n    %171 = stablehlo.add %163, %170 : tensor<10000xui32>\n    %172 = stablehlo.broadcast_in_dim %arg0, dims = [] : (tensor<ui32>) -> tensor<10000xui32>\n    %173 = stablehlo.add %169, %172 : tensor<10000xui32>\n    %c_44 = stablehlo.constant dense<5> : tensor<ui32>\n    %174 = stablehlo.broadcast_in_dim %c_44, dims = [] : (tensor<ui32>) -> tensor<10000xui32>\n    %175 = stablehlo.add %173, %174 : tensor<10000xui32>\n    return %171, %175 : tensor<10000xui32>, tensor<10000xui32>\n  }\n  func.func private @_var(%arg0: tensor<10000xf32>, %arg1: tensor<i32>) -> tensor<f32> {\n    %cst = stablehlo.constant dense<0.000000e+00> : tensor<f32>\n    %0 = stablehlo.reduce(%arg0 init: %cst) applies stablehlo.add across dimensions = [0] : (tensor<10000xf32>, tensor<f32>) -> tensor<f32>\n    %1 = stablehlo.broadcast_in_dim %0, dims = [] : (tensor<f32>) -> tensor<1xf32>\n    %cst_0 = stablehlo.constant dense<1.000000e+04> : tensor<f32>\n    %2 = stablehlo.broadcast_in_dim %cst_0, dims = [] : (tensor<f32>) -> tensor<1xf32>\n    %3 = stablehlo.divide %1, %2 : tensor<1xf32>\n    %4 = stablehlo.broadcast_in_dim %3, dims = [0] : (tensor<1xf32>) -> tensor<10000xf32>\n    %5 = stablehlo.subtract %arg0, %4 : tensor<10000xf32>\n    %6 = chlo.square %5 : tensor<10000xf32> -> tensor<10000xf32>\n    %7 = stablehlo.convert %arg1 : (tensor<i32>) -> tensor<f32>\n    %cst_1 = stablehlo.constant dense<1.000000e+04> : tensor<f32>\n    %8 = stablehlo.subtract %cst_1, %7 : tensor<f32>\n    %cst_2 = stablehlo.constant dense<0.000000e+00> : tensor<f32>\n    %9 = stablehlo.reduce(%6 init: %cst_2) applies stablehlo.add across dimensions = [0] : (tensor<10000xf32>, tensor<f32>) -> tensor<f32>\n    %10 = stablehlo.divide %9, %8 : tensor<f32>\n    %cst_3 = stablehlo.constant dense<0.000000e+00> : tensor<f32>\n    %11 = stablehlo.compare GT, %8, %cst_3, FLOAT : (tensor<f32>, tensor<f32>) -> tensor<i1>\n    %cst_4 = stablehlo.constant dense<0x7FC00000> : tensor<f32>\n    %12 = call @_where(%11, %10, %cst_4) : (tensor<i1>, tensor<f32>, tensor<f32>) -> tensor<f32>\n    return %12 : tensor<f32>\n  }\n  func.func private @_where(%arg0: tensor<i1>, %arg1: tensor<f32>, %arg2: tensor<f32>) -> tensor<f32> {\n    %0 = stablehlo.convert %arg2 : tensor<f32>\n    %1 = stablehlo.select %arg0, %arg1, %0 : tensor<i1>, tensor<f32>\n    return %1 : tensor<f32>\n  }\n}\n",
  "stablehlo_op_counts": {
    "chlo.square": 1,
    "stablehlo.add": 38,
    "stablehlo.bitcast_convert": 1,
    "stablehlo.broadcast_in_dim": 73,
    "stablehlo.compare": 1,
    "stablehlo.concatenate": 1,
    "stablehlo.constant": 63,
    "stablehlo.convert": 4,
    "stablehlo.custom_call": 2,
    "stablehlo.divide": 3,
    "stablehlo.iota": 1,
    "stablehlo.maximum": 1,
    "stablehlo.multiply": 3,
    "stablehlo.or": 21,
    "stablehlo.reduce": 3,
    "stablehlo.reshape": 2,
    "stablehlo.select": 1,
    "stablehlo.shift_left": 20,
    "stablehlo.shift_right_logical": 22,
    "stablehlo.slice": 2,
    "stablehlo.subtract": 4,
    "stablehlo.xor": 23
  },
  "versions": {
    "jax": "0.10.2",
    "jax-mps": "0.10.9",
    "jaxlib": "0.10.2",
    "python": "3.13.9"
  },
  "workload": "random"
}
